use-cases/radio-astronomy/models/trained_CNN1D_test_v0.pt (torch, 560508 bytes, 9 tensors)

conv1.weight f4 [16, 1, 3]
00000000: fee2 12bf 30e4 573e dd59 d13e 0cf6 e33e
00000010: 3e8d ebbe a19c 6f3d 07dd 93be e167 9fbe
00000020: c8a1 193d 142b f4bd 4161 3b3e 48ed 3e3e
00000030: 2339 003f cd68 09bf f6b1 a5be 5b4c 05bf
00000040: efa0 fa3c 1a92 93be dc2f 073f 7b84 133b
00000050: 8c06 babe c814 c6bd d5c4 6f3e 2d24 7dbe
00000060: 78ec 043d 692f 563d 6b32 d03e 25fc 7b3d
00000070: f54f f2be be35 12bf 6585 d7be 9141 a43e
00000080: f78a 023f 1047 cfbe 9e59 13bf 564a b53e
00000090: 018d 07bf 1e13 0abe 050b 3fbe 1ac5 a2bb
000000a0: 2dd9 0d3f d6d8 b9bc 52f9 fcbd 2d6a f7be
000000b0: 3012 593e c16d c93e f134 cabe e70d 943e
-0.5737761 0.2108314 0.40888873 0.44523656 -0.46006197 0.058498982 -0.28879568 -0.3113394
0.037507802 -0.11922279 0.18298818 0.18645203 0.50087184 -0.5367554 -0.32362336 -0.52069634
0.030594317 -0.28822404 0.528074 0.0022509384 -0.3633312 -0.096719325 0.23414929 -0.24720831
0.032452077 0.052291308 0.40663466 0.06151976 -0.47326627 -0.57113254 -0.4209396 0.32081273
0.50993294 -0.40483904 -0.5755862 0.35408276 -0.5294953 -0.13483855 -0.18656547 -0.004967344
0.5540951 -0.022686403 -0.123522416 -0.48323193 0.21198344 0.39341548 -0.39493516 0.28916857

conv1.bias f4 [16]
00000000: b782 c8be 0a4c 483e 11a3 af3e 58c0 93be
00000010: 1999 f2be d7b9 06bf 0652 04bf 843e 48be
00000020: 85cf c43e 0fb1 c13e 035d ebbe 75e9 0cbe
00000030: bf57 a83e 6cc7 0dbf 33fa cc3e 3748 663e
-0.39162228 0.19560257 0.34304097 -0.28857684 -0.4738243 -0.5262732 -0.5168766 -0.19555098
0.38439575 0.37830397 -0.459694 -0.13760932 0.32879445 -0.5538242 0.40034637 0.22488485

conv2.weight f4 [32, 16, 3]
00000000: 3e52 d23d d66e ce3d 2905 cbbd 8df0 9dbd
00000010: 7862 dcbd 01e4 0ebe 08d3 0a3d d369 12be
00000020: 483b c4bc 5258 1d3d f41a c9bd 0eab 15bd
00000030: 7214 b6bd 528a 583d 307b df3c b92d 85bd
00000040: 6182 3a3d d001 0f3e 3efd 073e b946 0d3e
00000050: 1ed7 a7bd 1b84 32bd 0f5a 713d d65d 643c
00000060: fbb6 943d 0102 07be 5f71 abbc cd3c 02be
00000070: c285 e4bd db65 f03c 0e2a 183d ffb7 e7bb
00000080: 4fae dc3d fe04 ebbd e4b2 e6bb 8159 af3d
00000090: 8244 4f3b 5177 1c3d 30b9 c3bd fffe 84bc
000000a0: f5ca 4b3d 4dfe 75bd ebe8 9bbd 71a3 f93d
000000b0: 4b7e c7bd 9d6d 9f3d b620 8bbd 33bc 02bc
000000c0: bb70 ccbd e76f 50bd 0050 e3bb af25 fc3c
000000d0: b9fd cdbd ea4a ac3c 1aed 89bd 67b1 9e3c
000000e0: b754 9238 a11f 80bc 1d9c 82bd f881 a5bc
000000f0: d46c 473d 0ffa a93c b6fb 393d 3378 aabd
00000100: 8e74 9bbd 51f0 ff3d ea92 ac3d f3a9 8e3d
00000110: 4ccc 0cbe 34c1 0bbe 0846 703c d07e ab3d
00000120: a742 bb3a e2b6 fcbd a65e 89bc 39a8 61bc
00000130: ece2 063e 8803 b33c a880 2c3b ab8a 09be
00000140: f379 663c 15d7 0d3e 87e9 87bd 5a37 483c
00000150: 3ebe 3bbc 5c58 c23c f88c 20bd b6c5 09be
00000160: 80fe 86bd fe97 00be 16b4 4abd 3e7c 113e
00000170: 808f 5d3d 37d4 ee3c 06d4 dabd 25f4 9f3d
00000180: 2e0c 023e f742 b33d ff4d 9abd 40cc a7bd
00000190: 1597 51bd 984d dabd ddc4 b6bc 1c8a 563d
000001a0: c383 a1bd 10f9 d4bc 9e56 f9bd c9aa c6ba
000001b0: e607 873d ed1b 02be 562b 963d 6755 f23c
000001c0: 7cdc ee3d 2865 a6bd 4587 703c 47a1 0bbe
000001d0: b918 07bd ecb7 8bbd 20af 09be 4d2f e9bd
000001e0: 8135 0abe a147 25bd 7700 1abd 61bc 8abd
000001f0: e31c f23d 51cb e23c 1982 13be 47eb 863d
00000200: 0591 adbd c44d ddbd 4222 043e a1f1 04be
00000210: 5107 26bd 1de9 ed3d 701b 5b3d 6982 bd3d
00000220: 331e 2abd cadd 10bd 0c6a 053e ec1b 953d
00000230: cec9 da3b 4807 cdbd 05a2 0dbe 79dc c0bd
00000240: 65ee 1bbd 6ae4 8c3d e3e4 db3d 88c1 103d
00000250: 20d7 d7bc 1839 cabd 8082 c9bd 4971 7c3d
00000260: 093f c3bd 8575 703c ef47 c83d 2368 a2bd
00000270: fa52 fd3c 59f0 96bd 93c6 01bd 576e f63b
00000280: 450f 89bc b054 46bd bf15 d1bc 4f41 85bd
00000290: bd93 03be b6df b7bd 0b59 c3bd d1cb 5b3d
000002a0: e0cd d13d 2e57 89bd 054e 053b adfb 6abd
000002b0: 7885 a5bc c35f 423d 08ab 3e3d cd06 64bc
000002c0: 440e 5ebc 764d 6abd cb1c 6139 4919 d33b
000002d0: 251a cb3b 5609 3abb c5b8 0bbe 25e6 cabd
000002e0: 1976 bfbd 2da7 2bbd 292e 94bd adc0 51bc
000002f0: 951d febd cb44 79bd e417 813d 246a b13d
00000300: 5a09 383d e63f 5a3d 26f3 ab3d ce7b c53d
00000310: c278 a83c 00e0 7bbd 7372 a63d 6e77 74bd
00000320: 4352 0e3e bcc9 b63c 6cec 5d3b 5d46 10be
00000330: 319e c73d 782a 7c3c da31 303d 2aef 0cbe
00000340: 1491 f13d 6e6e 58bc 443c f53d b2a9 583d
00000350: a83a 663c 6b4d 0abe f46d 203d a962 ec3d
00000360: dece c73d 99ef b33d 2c17 c0bd 8b06 0b3e
00000370: fe6e 063e 2b30 073e 1e60 b8bd 8abb 703d
00000380: 04af bb3c 975f 8e3d ffe7 80bd 7eea 01be
00000390: dc64 063e f259 d4bd 0f73 86bd 0c38 243d
000003a0: 31e9 76bd fa64 dc3b a736 dbbc 2004 ce3c
000003b0: e70a 31bc 5c56 fbbd 64d4 563d 8710 e43d
000003c0: d355 5f3d 69ee 8cbd 59e7 a83b c387 44bd
000003d0: 6281 cf3c ebd5 96bd a2c7 93bc a63d 023e
000003e0: 90bd 413b a3c5 8dbd 9417 d5bd fc26 f5bc
000003f0: ea7c 07bd 98b5 e53d a5ab a33d f8de c4bd
0.10269593 0.10079734 -0.099130936 -0.07711897 -0.10760969 -0.13954164 0.03389266 -0.14298181
-0.023954049 0.038414307 -0.09819594 -0.036540084 -0.088906184 0.052866288 0.02728042 -0.065028615
0.045534495 0.13965535 0.13280198 0.1379651 -0.08195327 -0.043583017 0.058923777 0.013938388
0.07261463 -0.13184358 -0.020928083 -0.12718506 -0.11158325 0.029345443 0.03714948 -0.0070714946
0.10775434 -0.114755616 -0.0070403684 0.085619934 0.0031626527 0.038199726 -0.09556806 -0.016234873
0.0497541 -0.060056973 -0.07612785 0.12189377 -0.09740885 0.07784579 -0.067933485 -0.0079794405
-0.09982439 -0.05088797 -0.006937027 0.030779688 -0.100581594 0.021031816 -0.06734677 0.019371701
6.977602e-05 -0.015640082 -0.063774325 -0.020203575 0.04868777 0.02074912 0.045406066 -0.083237074
-0.075905904 0.124970086 0.08426459 0.06966009 -0.13749808 -0.1364792 0.014665134 0.08373797
0.0014286832 -0.1233957 -0.016768765 -0.013773018 0.13172501 0.02185227 0.0026321802 -0.13431804
0.014067161 0.13851579 -0.06636339 0.012220228 -0.0114589315 0.023723774 -0.03919694 -0.13454327
-0.06591511 -0.1255798 -0.04948815 0.14207551 0.05409193 0.029153926 -0.106849715 0.07810239
0.12699959 0.08753007 -0.07534408 -0.081932545 -0.051169474 -0.10659331 -0.022310669 0.052377805
-0.0788646 -0.025997669 -0.12174724 -0.0015157099 0.065933034 -0.12705965 0.073324844 0.029581739
0.11663148 -0.08124763 0.014680688 -0.13635741 -0.03298256 -0.0682219 -0.13445711 -0.11385975
-0.13496973 -0.040351514 -0.0375981 -0.06774212 0.11821916 0.02768484 -0.14405097 0.06587844
-0.08474926 -0.10805848 0.12903693 -0.12982799 -0.04053432 0.116167285 0.053492963 0.092533894
-0.041532706 -0.035367765 0.13028735 0.07280716 0.006676889 -0.100111544 -0.13831337 -0.09417052
-0.038069148 0.06879504 0.10737016 0.035340816 -0.026347697 -0.09874171 -0.09839344 0.061631475
-0.095335074 0.014676456 0.09779345 -0.07930019 0.030923355 -0.073700614 -0.031683516 0.0075204778
-0.016730914 -0.048420608 -0.025523065 -0.06506597 -0.12849326 -0.08978216 -0.09538468 0.05366117
0.10244346 -0.06706081 0.0020340693 -0.057368923 -0.020205244 0.047454607 0.046549827 -0.013917637
-0.013553206 -0.05720278 0.00021468398 0.006442223 0.006198185 -0.0028386912 -0.13644703 -0.09907178
-0.09348697 -0.041907478 -0.07235367 -0.012802285 -0.12407986 -0.06085662 0.06303385 0.08662823
0.044930793 0.053283595 0.08395986 0.096427545 0.020565394 -0.06149292 0.08127298 -0.05968421
0.13898568 0.022312991 0.0033862842 -0.14089341 0.097469695 0.015390985 0.043016292 -0.13763109
0.117952496 -0.013209922 0.119743854 0.05289621 0.014052071 -0.13506095 0.03916736 0.115422554
0.09756254 0.08785934 -0.0937942 0.13576715 0.13128278 0.13201968 -0.09002708 0.0587726
0.022910602 0.06951826 -0.0629425 -0.12687108 0.13124412 -0.10368718 -0.065649144 0.040092513
-0.060280982 0.0067259045 -0.026759459 0.025148451 -0.010805822 -0.12272331 0.052448645 0.11135965
0.054525208 -0.06881411 0.005154532 -0.047981035 0.02533025 -0.0736502 -0.018039528 0.1271883
0.002956245 -0.06922462 -0.10404888 -0.029925816 -0.03307811 0.11216277 0.07991723 -0.096128404

conv2.bias f4 [32]
00000000: 4478 11be a2a9 943d fb41 0a3e e1d8 91bd
00000010: 03df 423d 4976 00be 7011 bc3d 3fde 19bd
00000020: 92af 04bd f303 babd d169 18bd b1df 513d
00000030: 1613 0d3e 6f98 713d f2ab 963d 8c9b 883c
00000040: 9139 fa3b 8611 cebd 7bcd 17bd 358f d2bd
00000050: 85a0 3e3c 5754 a53d 11a2 993d d548 f2bc
00000060: e43b 133d c791 d2bd e5a2 0b3d 1327 73bd
00000070: 4d33 043d e4cd fbbc 84d2 983d fcd8 4b3b
-0.14206034 0.072589174 0.13501732 -0.071214445 0.04757596 -0.12545122 0.091830134 -0.037565466
-0.032394 -0.090827845 -0.03721029 0.05123872 0.13776812 0.058983263 0.07357015 0.016675733
0.007636257 -0.10061936 -0.037061196 -0.10281221 0.0116349505 0.08072727 0.07501615 -0.029575745
0.035945788 -0.10281711 0.034090895 -0.059363436 0.032275487 -0.030737825 0.07462028 0.0031104675

conv3.weight f4 [64, 32, 3]
00000000: 747e a0bd 591e 61bd 13cb 0abd 7918 083d
00000010: e51f 0ebd e88a edbc bfb5 603d 83ed 9fbc
00000020: 3db3 853d bb73 b03c 66c6 8cbd 6da8 d33c
00000030: 4dac 66b9 76de 3abd 71c9 95bd 3114 963d
00000040: 2218 82bc f234 8b3d c030 753d 3405 bcbd
00000050: 53df 6ebd 9669 aa3d 9ce8 d7bc 5672 f6bc
00000060: cc35 c3bd 904d f8bc 0304 c7bc 44f3 3fbd
00000070: cdc8 82bd ad78 fbbc a847 9fbd 2cac cbbc
00000080: 840b a1bc f758 8e3d 9250 8e3d 42b5 933c
00000090: e646 953d 13f0 9ebd f986 7dbd 1e19 a0bd
000000a0: 238d e0bb 8dbc aebd 882e 913d d554 073d
000000b0: 8286 f1bc 1bba 53bd c807 89bd 9753 6d3d
000000c0: 7803 b5bd e397 66ba 873e a8bd 9ef2 b3bd
000000d0: edd5 10bd 4fd3 cf3d 6255 6f3d 4539 09bd
000000e0: f0ff 3abd 5a24 ccbc f3e3 59bd d5b9 96bd
000000f0: 9291 ce3d 1aaa afbd 0f6d 03bd 4fbd a8bd
00000100: ac29 c7bc 282c 7a3b 6a27 993d 9cac d3bc
00000110: e307 c33d 2e7a 9cbd d035 9d3d 89ca 8bbc
00000120: 9a34 f1bc 2ad6 973c f229 33bd b06a 78bd
00000130: d919 1fbd b1b3 babd 8e4e 143d e907 d23c
00000140: 12ba 0e3d 543d 84bd add2 d0bd 5c82 9d3d
00000150: 654f 6cbd 175b bdbd af04 fabc f43d cfbd
00000160: fae7 9cbd 5237 5abd 4d61 a3bd ab0b f4bb
00000170: 0751 9f3d edea 11bc f0a0 b23c 4a07 ba3d
00000180: ba5e d03d 7e5e af3d 42a8 86bc fa78 abbd
00000190: c059 143d cd37 a43d 02a5 6cbd 3898 15bd
000001a0: b223 c53d d7c3 14bd 8622 2dbd 3cc6 a03d
000001b0: e1a1 b43d 7352 cb3d 6bb9 eebc 3bf6 ae3d
000001c0: ecc1 503d 559a 523d ec17 283d 7b63 053d
000001d0: 7812 2fbd 733d e13c df73 623d 492b 57bd
000001e0: 8639 c33d 6706 cc3d 38a7 843d 1f8b 8cbd
000001f0: b292 87bc 8cea bfbd 8253 8abc c32f b8bc
00000200: ec80 b93c bd6a 383d f14e 4a3c ed6e 4fbd
00000210: 2757 bebd 873a b1bb 41bd 6c3d 5dc4 01bd
00000220: de8f 8dbc 806a 25bd 91c3 cd3d 1d09 68bd
00000230: 83fa 513c 4e4a 8cbd 4c26 373c 273a b53d
00000240: d36e 48bd d7c6 13bc 8998 8e3d 24a0 803d
00000250: 7577 b6bd 6f22 403d 8de3 ecbb 0339 773d
00000260: d2f8 023c c7b6 84bd 1822 243d 80dd 31bd
00000270: 6919 b23d 3657 1d3d c3d3 a23b f3ab b83d
00000280: 9bf9 72bd 040c 52bb efc2 ca3d 8d26 583d
00000290: c40e 793d 6f75 abbd ef5f 9b3d 8077 6e3d
000002a0: 3793 13bd 43b5 873d f228 39bc b01f 693d
000002b0: 8a7c 93bc 7ff9 803d 6057 173d 2dbc a33d
000002c0: a8a7 bbbd a4c8 603d f8ec 70bd 4b2d 03bd
000002d0: 43d6 913c a586 853d 2d38 02bd 5871 483b
000002e0: dc24 be3d 45aa bebb 5311 8dbd 92de a33d
000002f0: 919d 18bb 66cd 80bd 8954 14bd 0b2a c2b9
00000300: 74e8 a63d 8c64 8cbb 83dc d03d 00cc d03d
00000310: 2d57 a83c 6b75 ca3c 9adc 2b3d c11f c9bd
00000320: cbc3 853c 0d9a a23d 8a5a 3c3d d1d5 463d
00000330: d01f abbd 2a10 b7bd a483 22bd 0127 353d
00000340: 1aac b7bb 6be0 0f3d b568 433d 9ffa 73bd
00000350: af53 5ebd f1f2 7439 bf33 2dbd ac13 b03d
00000360: 4a4e afbd 7d14 ae3b ebaf 9a3d bab7 043d
00000370: 85f5 a1bd 1aa8 ebbc c056 333d ca0d b5bd
00000380: e31a efbc a35b bebd 4287 cdbd 01eb c63d
00000390: 61ee f1bc de07 583c d950 5fbb 293a 2abc
000003a0: 374b 8a3d 617b 7c3d 9818 ce3d 7449 cdbd
000003b0: 26a0 b03d c391 0cbd 7da4 ba3c 96fd 993d
000003c0: 8481 5c3d 0ed9 383d 1257 a73d b223 99bd
000003d0: d330 cdbc 484f be3d 43be 5dbc 8ab1 633d
000003e0: 5924 123d 92df 91bd 43b3 9a3d edf0 b3bc
000003f0: a107 96bd 7a3b 37bc af52 3f3d 0317 c13d
-0.07836619 -0.054960582 -0.033885073 0.033226464 -0.034698386 -0.0289969 0.054860827 -0.019522434
0.065283276 0.02153956 -0.06873779 0.025837148 -0.00021998696 -0.04562231 -0.073138125 0.0732807
-0.015880648 0.06797208 0.059860945 -0.0918068 -0.058318447 0.0832092 -0.026356034 -0.030083816
-0.09531745 -0.030310422 -0.024293905 -0.046862856 -0.06385956 -0.030697191 -0.07777339 -0.024862371
-0.019658811 0.069505624 0.06948961 0.018030766 0.072889134 -0.07760634 -0.061896298 -0.07817291
-0.0068527623 -0.08532057 0.07088953 0.033039887 -0.029483084 -0.051691156 -0.06690937 0.057941046
-0.08838552 -0.00087964366 -0.08215051 -0.0878651 -0.035360266 0.10147726 0.058431037 -0.033501882
-0.045654237 -0.024919678 -0.053195905 -0.073596634 0.10086359 -0.08577366 -0.03208643 -0.08239233
-0.024311863 0.0038173292 0.07478221 -0.025839143 0.09522989 -0.076404914 0.076762795 -0.01706435
-0.029444028 0.018534739 -0.043741174 -0.06064862 -0.03884301 -0.09116305 0.036207728 0.025638537
0.03484542 -0.0645701 -0.10196433 0.0769088 -0.057692904 -0.0924589 -0.030519811 -0.101192385
-0.076614335 -0.053275414 -0.07977543 -0.00744768 0.077791266 -0.008906108 0.021805257 0.090834215
0.10174318 0.08562945 -0.016437653 -0.08372684 0.036218405 0.08018456 -0.05777455 -0.03652212
0.09625949 -0.03631958 -0.042269252 0.0785031 0.088199385 0.09927835 -0.029141149 0.085430585
0.05096619 0.051416714 0.04103844 0.032565575 -0.042742223 0.027495122 0.055286285 -0.052531514
0.09532456 0.09962159 0.06477207 -0.06862473 -0.016549442 -0.09370908 -0.016885523 -0.022483712
0.022644483 0.04502367 0.012347923 -0.050642896 -0.09293967 -0.0054085883 0.057797674 -0.031681407
-0.017280515 -0.04038477 0.10047067 -0.056649316 0.012816074 -0.0685011 0.011178564 0.08848982
-0.048933815 -0.009019575 0.069626875 0.062805444 -0.08909503 0.04690784 -0.0072292746 0.060357105
0.007993894 -0.064801745 0.040071577 -0.04342413 0.08696253 0.03841325 0.0049690916 0.09017172
-0.059320074 -0.003205062 0.09900462 0.05277114 0.060805097 -0.08372008 0.07586657 0.058219433
-0.036029067 0.0662637 -0.011301266 0.056914985 -0.01800372 0.062975876 0.03694856 0.07994876
-0.09162837 0.054878846 -0.05881974 -0.032025617 0.017802363 0.06519822 -0.031791855 0.0030585136
0.09284374 -0.0058186376 -0.0688807 0.08001436 -0.0023287276 -0.06289177 -0.03621343 -0.00037033888
0.08149806 -0.004284447 0.10198309 0.1019516 0.020549381 0.024714192 0.04195843 -0.0982051
0.016328713 0.07939539 0.045984782 0.048543755 -0.08355677 -0.0893863 -0.039676324 0.04422665
-0.005605233 0.03512613 0.04770728 -0.059565183 -0.054279026 0.00023360156 -0.042285677 0.08597502
-0.08559854 0.005312501 0.07553085 0.032401778 -0.07908157 -0.02876668 0.043783903 -0.08840521
-0.029187625 -0.09294822 -0.10035564 0.09712792 -0.029532613 0.013185469 -0.0034075289 -0.010389843
0.06752627 0.0616411 0.10063285 -0.10023776 0.08624296 -0.034318697 0.022783512 0.07519071
0.053834453 0.045128874 0.08170904 -0.074775115 -0.025047695 0.092924654 -0.013534131 0.055589236
0.035679195 -0.07122721 0.07553723 -0.021965468 -0.07325674 -0.011183614 0.046709713 0.09428217

conv3.bias f4 [64]
00000000: aa3f 913b 2838 f5bb a29f 18bd 43da c93c
00000010: cb07 b3bd ca1b a5bd fe3d 4cbb f58a 80bb
00000020: 2638 8a3d b3db a9bc bc82 bebd d5ba e23c
00000030: 4ec8 8fbc a46f 1a3c c6e8 a1bd bb19 4b3d
00000040: b156 36bd d60d 553d 3a12 b73d f573 68bd
00000050: c4ff c0bc afed a23d f821 abbd aac0 c7bb
00000060: 56c8 24bd 3fa7 7c3c f5fa 9e3d 456f 8dbd
00000070: 04a8 65bd e486 09bb 15d5 28bd 1af8 653c
00000080: 6edd 573d c2d5 483d b375 88bd af39 34bd
00000090: 3101 5b3c ca3e 8dbd f395 aa3d 8cc1 57bd
000000a0: 0302 91bd 4beb c13b c7f5 aa3d aeae d0bd
000000b0: 67a1 c4bc 33c5 94bb 5291 333d 7683 85bd
000000c0: 2a83 9dbd 2f02 8fbd 95e0 f8bc 3230 aebc
000000d0: acd0 9f3d 336b a1bd e0ac 853d 242c 7bbd
000000e0: d422 82bd 6144 063d d0d4 97bd 58c2 0c3c
000000f0: aada 0d3a 94ad 95bd 587e 07bd 0309 2c3d
0.004432638 -0.007483501 -0.037261613 0.024640208 -0.08741721 -0.08061941 -0.003116488 -0.003922815
0.06748991 -0.020734644 -0.09302279 0.02767698 -0.017551567 0.009426031 -0.07905726 0.049585085
-0.04451627 0.052015148 0.08939023 -0.05675121 -0.023559459 0.07955491 -0.083560884 -0.0060959654
-0.040230118 0.015420734 0.0776271 -0.069059886 -0.056068435 -0.0020984942 -0.041218836 0.014036203
0.052701406 0.04903198 -0.06663074 -0.044000324 0.013366983 -0.06896742 0.08329382 -0.052674815
-0.07080462 0.0059179417 0.083476596 -0.101895675 -0.024002744 -0.0045401095 0.04383976 -0.06519215
-0.07691033 -0.06982838 -0.030380527 -0.021263216 0.07803473 -0.07881775 0.06527114 -0.061321393
-0.06354299 0.032780055 -0.07413638 0.008591257 0.00054113066 -0.07308498 -0.033079475 0.04200078

fc1.weight f4 [128, 1024]
00000000: e834 993b 7c41 c93c f2e6 92bc 0891 8a3b
00000010: d642 a1bc 0a47 db3c 90a1 1c3b a845 913c
00000020: 20f8 c0bb 582b 9cbc ce3e dd3c 2c29 493c
00000030: ac40 d33c 80d0 d93a a8ce 973c 7801 b2bc
00000040: 6874 843c 595f 973c 5ccd b9bb c79c 8ab9
00000050: 4f43 983c 478c 99bc d137 da3c 4f43 a4bc
00000060: 1cb6 863b 66c0 203c 0353 8cbc 75d3 f3bc
00000070: e37e e73c 2c19 f0bb 8aaf 31bc 001c c53b
00000080: 2024 ff3b a8e2 fc3c 5040 53bb 5022 f9bb
00000090: fc1f 423c 941a 63bc bccc 423c c4ca 743c
000000a0: e0c5 bb3a ac4d 103c 40ed 8d3c 2019 b1ba
000000b0: 98ed 003c 02a1 873c 588e 453c f854 b4bb
000000c0: cef7 a0bc fe39 c439 a8aa 65bc 8e9f e93c
000000d0: b06c eabb 9042 e5bc e06a cb3c 70d6 d03c
000000e0: 8c8d 563c 0cc0 1a3c 106f 233b 7073 cbbc
000000f0: 3850 95bb c088 b6bc 928a e73c 45a6 b9bc
00000100: 98f7 b4bc c490 fb3c 300d 22bc 8871 d93c
00000110: 2849 b83b 90a6 e8bc c007 3f3a b4a5 fd3c
00000120: 5a97 fd3c 00ee 7b3b 621f a9bc 4e58 e9bc
00000130: ced0 e3bc 8c61 5fbc 3c95 ac3c fc35 03bc
00000140: f014 0c3c e0a3 adba 9819 64bc e0e8 4cbb
00000150: a452 fabc 00e2 9dbb 60f5 f33c ec93 3ebc
00000160: e4b4 033c 7420 813c 4413 3dbc e8e4 0cbc
00000170: b050 6fbc a61a ffbc e0ea 1e3b 2842 9abb
00000180: 36d8 ffbc 108d 873b 7694 ef3c 2011 4b3b
00000190: 74da 1fbc 14d7 503c ccc7 efbc 544a 7abc
000001a0: f068 c5bb fc25 2fbc e65e b9bc 5ea0 e7bc
000001b0: 2c64 bc3c 3884 883c 9471 83bc a8cc f8bc
000001c0: 0000 8d39 00ce fe3b 9ebb 8dbc 782a 28bc
000001d0: 0467 26bc 3ecd cebc aa62 a23c eefb eebc
000001e0: f8e8 32bc c034 96bb 4a1b 843c a885 93bb
000001f0: 2afd ccbc c007 aa3c 5019 6e3b 3a82 853c
00000200: 40f1 8abc 07cf a6ba 6209 c439 4074 e9bc
00000210: 15dd 07bc 81a1 34bc cb9e 103c c2d2 c73c
00000220: beaf 92bc 276e 283c 20a3 fcbc f821 f2bc
00000230: 18a6 ab3c 9275 923c 66a7 87bc 6871 623c
00000240: 80fb 23ba 68b4 3e3c 4051 cbba 4a7d 9d3c
00000250: d8bb 0e3c d029 a2bc d2d2 e1bc ba23 db3c
00000260: 38e2 cb3b aa6e bebc aadd 92bc cefb f73c
00000270: e638 b0bc 6ce9 673c 38a9 e9bc f007 20bc
00000280: 3822 963c d094 d6bb 0416 c5bc 005e ad38
00000290: 3adf 8d3c 2a21 bbbc 4069 76bb e03d 36bb
000002a0: 58e2 163c c057 3eba 468a d0bc 9e99 d9bc
000002b0: 40b8 fabb 98b2 8bbb 780c e53c 9824 d3bc
000002c0: be96 ccbc b897 40bc 5e50 cd3c b899 983c
000002d0: e015 ed3a 50c4 32bc 00a1 e4bb 16d4 ef3c
000002e0: 6e3f 973c 8cf5 fc3c 14e1 3e3c 54c3 373c
000002f0: a04d aabb 40e4 c0ba 6415 2e3c 1884 cc3c
00000300: 801d 74ba c650 923c 5aca d43c 0adc f0bc
00000310: 74c1 96bc 00d3 e039 16cc d43c a661 a93c
00000320: 8e23 d9bc 58bd fcbc 1492 083c f8c5 aabb
00000330: c8cd d23c d0a6 65bc 38a7 0e3c 8c50 36bc
00000340: 19ec 06bc 1496 763c 1cb1 3f3c 1ddc 7ab9
00000350: 1217 f8bc f459 1d3c aff2 c23b d267 48bb
00000360: d066 953c d64a cabc 1129 e3bb f416 55bc
00000370: 90c2 3d3c 8802 f63c b939 02bd 9854 f03c
00000380: 2005 c83a 26b0 dcbc 7a4d ff3c 7835 9a3c
00000390: 4849 8fbc d2dd a5bc 1859 913c 3c15 2f3c
000003a0: 541e 2cbc 9e25 8d3c f8be 32bc 00b2 55bb
000003b0: c018 b6ba 606b bd3b 2a4d f7bc b230 e1bc
000003c0: 5534 4ebc 66db 30bc b2f8 703c 342e e2bb
000003d0: 9215 4abc bff9 99bc 7120 8dbc 1783 4cbb
000003e0: eb10 9bbc 07d6 0cbb 2f21 bb3c 0f90 b4ba
000003f0: dd33 14ba 7b3a a43c 1c24 ccbb 8e44 d33c
0.0046754964 0.024567358 -0.017932389 0.004228715 -0.01968519 0.026767273 0.002390001 0.01773341
-0.005888954 -0.019063637 0.027007487 0.012277883 0.025787674 0.0016617924 0.018531159 -0.021729216
0.016168788 0.018478082 -0.0056702327 -0.0002643822 0.018586783 -0.018743647 0.026637943 -0.020051626
0.0041110646 0.009811496 -0.017129427 -0.029763917 0.028258746 -0.0073272195 -0.010845074 0.0060153008
0.007786289 0.030869797 -0.0032234378 -0.0076029673 0.011848446 -0.013861317 0.011889633 0.014940921
0.0014325939 0.008807581 0.017325044 -0.0013511516 0.007869147 0.016556267 0.012057863 -0.005503293
-0.019649412 0.0003742724 -0.014017738 0.028518464 -0.00715407 -0.027985841 0.024831235 0.025492877
0.013095271 0.009445202 0.0024938025 -0.024835318 -0.004556682 -0.022282004 0.028264318 -0.022662291
-0.022090718 0.030708678 -0.009890839 0.026543394 0.0056239553 -0.028399736 0.00072872266 0.030962802
0.03095596 0.003844142 -0.020644847 -0.02848449 -0.027809527 -0.013634097 0.021067254 -0.008008476
0.008549914 -0.0013247691 -0.013922118 -0.0031266734 -0.030556984 -0.004818201 0.02978009 -0.011631947
0.008038733 0.015762545 -0.011540238 -0.008599497 -0.01460664 -0.031140637 0.0024248883 -0.0047075935
-0.031231027 0.004136689 0.029245596 0.003098555 -0.009756673 0.012746591 -0.029270075 -0.01527651
-0.0060244724 -0.0106902085 -0.022628259 -0.028274711 0.022996984 0.01666461 -0.01604537 -0.030371025
0.00026893616 0.007776022 -0.017301377 -0.010264032 -0.010156397 -0.025244351 0.019822437 -0.029172864
-0.010919802 -0.004583925 0.016126294 -0.004502017 -0.025023062 0.020755649 0.0036331005 0.016297448
-0.01696074 -0.0012726494 0.00037391024 -0.028497815 -0.008292456 -0.011024834 0.008826922 0.02439249
-0.017906066 0.010280169 -0.030839503 -0.029557213 0.020953223 0.017878328 -0.016559314 0.0138209835
-0.0006255433 0.011639692 -0.0015511885 0.019224782 0.008711778 -0.019795328 -0.027566347 0.026750434
0.0062220357 -0.023246128 -0.017927963 0.030271437 -0.021511506 0.014154773 -0.028523073 -0.009767517
0.018326864 -0.0065485016 -0.02405835 8.266792e-05 0.017318357 -0.022842962 -0.0037599355 -0.0027807876
0.009209238 -0.00072610006 -0.025456559 -0.026562508 -0.007651359 -0.0042632334 0.027960047 -0.025774285
-0.024974223 -0.011754923 0.025062736 0.018627986 0.0018088184 -0.010911062 -0.0069772005 0.029275935
0.018462863 0.030878805 0.0116503425 0.011216003 -0.005197242 -0.0014716461 0.010625217 0.024965331
-0.0009312257 0.017860781 0.025975395 -0.029401798 -0.018402793 0.00042881817 0.025976222 0.020676445
-0.026506212 -0.030852005 0.008335609 -0.005211588 0.02573289 -0.014016822 0.00870686 -0.011127602
-0.008235001 0.01505043 0.011699941 -0.00023923856 -0.030284438 0.009603966 0.0059493403 -0.003057946
0.018237501 -0.024693888 -0.0069323857 -0.013005961 0.011582032 0.030030504 -0.03179333 0.029337212
0.0015260316 -0.026939463 0.031164873 0.018824324 -0.017490998 -0.020247374 0.017742679 0.010686215
-0.010505278 0.017229851 -0.010909788 -0.0032607317 -0.0013892874 0.0057806224 -0.030188162 -0.02748904
-0.012585719 -0.010794496 0.014707731 -0.0069024805 -0.012334244 -0.018795846 -0.017227383 -0.0031206065
-0.018928966 -0.0021489875 0.022842972 -0.0013775843 -0.000565348 0.020047417 -0.0062298905 0.025789525

fc1.bias f4 [128]
00000000: 7a5b 863c c937 88bc 68a5 5b3c 500b c3bc
00000010: 16e4 cebc dc89 f63c 65bb 4939 12d1 1a3c
00000020: 00df 4e3a f875 f93b acc0 90bc 2070 79bc
00000030: d92d 10bc 3394 c73c 0813 a9bc d432 8a3c
00000040: 2a47 f5bc 7581 f23b a969 eb3c a007 61bc
00000050: 8b0e a63b bae3 873c cb7d d33c 5c9d 89bc
00000060: 8415 c13c 6b38 863c ac7b 09bc c8a4 fcbc
00000070: a8f4 12bc 05bc 3a3c 1ad4 e9bc d309 4f3c
00000080: 8c2a 253c 0c7d 10bc bf2f 88bb 3a4f 9dbc
00000090: ab7b 903a 3847 67bc 71de be3c c031 07bb
000000a0: 5872 b5bb f4fb a8bc a042 db3c 94fb 653c
000000b0: ef8a fa3c b220 eebc 5111 b93c dc32 14bc
000000c0: e038 89bc 2405 433c 1469 4abc ca89 d3bc
000000d0: 569b f639 c02b 9ebc b48d 853c 6088 863b
000000e0: 2b6f a2bc 3e1c e93c 1878 42ba 53cc 3a3c
000000f0: 4272 b33c e0e3 353b 9fa2 f03c 046c 053c
00000100: cbdd 8b3c af0b b83c 10be e7bc d645 693c
00000110: 0e41 803c 984f 383c d09c 4b3c de22 963c
00000120: 4173 023c a8c5 bcbb d524 c63c 3842 babc
00000130: 0523 ba3c 5006 f73b 18af a5bb 4c32 f3bc
00000140: 22f5 a1bc bfed ffbc f5eb 933c 7181 903b
00000150: 3f80 a13c 92ed 89bc 4b4d ec3c 9826 d53c
00000160: bcd6 633c 0412 01bc a8e1 9b3c 2569 ee3c
00000170: 6039 d0bb 7808 b7bc 5ccf c9bc 9113 cd3c
00000180: aaaa c23b bd70 943c ed88 623c e89d 02bc
00000190: 4b0d 7d3c 6cc0 37bc bc74 583c 7a18 eebc
000001a0: da93 d3b9 7584 183c b94f 683c e857 84bc
000001b0: 6ecb a53b 18fa 3a3c 440a b2bc dc1e 4abc
000001c0: ac1e 22bc 988a 003c 00a0 3fbb 4407 44bc
000001d0: 79f3 dd3c 40a2 483a c608 e23b 7ded 8d3b
000001e0: e427 3d3c 9270 dc3c 57a4 563c 1657 95bc
000001f0: fa93 6c3b a097 063b a06a 86bb 8a73 b6bc
0.016401041 -0.016628163 0.013406135 -0.023809105 -0.025255244 0.030095033 0.00019238664 0.00944926
0.0007891506 0.00761294 -0.017669998 -0.015224487 -0.008799993 0.02436266 -0.020638958 0.01686994
-0.02994116 0.0074006864 0.028736906 -0.013734728 0.0050676516 0.01658808 0.025816819 -0.016798668
0.02356983 0.016384324 -0.008391302 -0.030840293 -0.008969463 0.011397366 -0.02854352 0.01263662
0.010080945 -0.008818876 -0.0041560824 -0.019202817 0.0011023184 -0.014116101 0.023299428 -0.0020629019
-0.0055373125 -0.020627953 0.026765168 0.014037032 0.030583827 -0.029068325 0.022591265 -0.009045329
-0.016750753 0.011903081 -0.012354154 -0.025822539 0.0004703651 -0.019307971 0.01630292 0.0041056126
-0.0198284 0.02845585 -0.0007418408 0.011401254 0.021905068 0.0027754232 0.029374419 0.008143429
0.017073533 0.022466509 -0.028288871 0.014237842 0.01565602 0.011249445 0.012427524 0.018327173
0.007962049 -0.005760867 0.024187485 -0.022736654 0.022721777 0.0075385943 -0.005056273 -0.02968707
-0.019770209 -0.031241296 0.018056849 0.004409962 0.019714473 -0.016836915 0.02884545 0.02601938
0.013906177 -0.00787783 0.0190285 0.029102871 -0.006354496 -0.022342905 -0.02463501 0.025033744
0.005940755 0.018120164 0.013826591 -0.007972218 0.015445064 -0.011215311 0.013211425 -0.029064406
-0.00040355214 0.009308924 0.014179164 -0.016155198 0.005059651 0.011412166 -0.02173341 -0.012336459
-0.009895008 0.007845543 -0.0029239655 -0.011964623 0.027093636 0.00076535717 0.0068980185 0.0043312893
0.011545155 0.026909146 0.013100705 -0.018230002 0.0036098943 0.0020537153 -0.004102066 -0.02227189

fc2.weight f4 [1, 128]
00000000: 4e9e 973c e72b 88bd 7c7c 97bd 9a69 db3c
00000010: ce2b 8b3d 9a28 b7bc b691 89bd b4b8 8f3d
00000020: edd6 7f3c c63f 4a3a fe39 ac3d 39ef a4bc
00000030: 7f48 463d 5d64 7e3d 5d1d 9cbc 6f2f 19bc
00000040: c381 b03d 367c 803d b7ad 8dbd dc28 503d
00000050: 4d31 89bd 6426 6e3d 39f1 0b3d 7a0a 7cbc
00000060: 63b3 c1bb 3433 54bd 9225 38bb 30f5 2b3d
00000070: d7be 363c e1c9 2abc 2341 b1bd 6660 023d
00000080: a75f c7bc bf19 a8bc 6445 043c 9371 03bc
00000090: e99b 02bd 4445 50bd ed43 86bd 0169 a0bc
000000a0: 1e10 b33d 050c 8b3d 2c97 7b3c f023 55bc
000000b0: 25fe 9dbd 3d61 203d 9381 a0bd 39f2 a33d
000000c0: 93fb dfbc c8a8 adbd 8c75 2ebd fb96 bb3b
000000d0: 7185 8fbb 5bcc ad3d a72e 80bd a6b3 33bd
000000e0: 0ee4 cdbc d03b 8f3d fafe 2f3d 1558 d93c
000000f0: c956 61bd 51f8 ccbc a9af 3ebd db0b 8fbd
00000100: d8e5 4c3d d8cf 6c3d de53 09bd 0b10 933b
00000110: 9d26 b23c c865 e73b 7faa a53c c13e 533d
00000120: 96ac 77bd 9c74 adbd 715e 24bd b81e 233c
00000130: c341 8abd fb35 88bd c650 ab3d 9b72 993d
00000140: 8308 c93c 3339 3f3d 1278 943d 9d9a 65bc
00000150: db51 a43d 8831 76bc 52a6 08bd 0317 3c3c
00000160: 1279 3d3d d9b4 a03d 1069 fa3b eb2f ac3d
00000170: 3610 a8bd f642 423d 5520 c93a 19d3 103d
00000180: e270 92bc e776 4a3d e5e4 69bd bc89 60bc
00000190: 6414 eb3c c316 bd3c e1ba 5ebc 116a 52bc
000001a0: 1734 1fbd 9b4e 8fbd a429 2bbd b746 8c3d
000001b0: 20b2 de3c 4cc9 a23d 92e9 9bbd 4c53 3fbc
000001c0: 4b36 3bbd 7ebc b0bd e5c5 b63c c02c 49bd
000001d0: bcd5 ad3d cff3 8d3c 0877 ae3c b9f5 4c3d
000001e0: 53bb 443d c56f 81bd 0b6e 753d c77e 963c
000001f0: 2fbc 9b3d c85b fa3c bad9 9f3d 550e 993d
0.018508103 -0.06648999 -0.073967904 0.026783753 0.067954645 -0.022358228 -0.06717245 0.07017651
0.015615207 0.00077151915 0.08409499 -0.020133602 0.04840898 0.062107433 -0.01905697 -0.009349688
0.086185 0.06273691 -0.06917899 0.050820217 -0.066988565 0.05814208 0.034165595 -0.015383357
-0.005911277 -0.051806644 -0.0028098566 0.041981876 0.011153898 -0.010424108 -0.08655002 0.031830214
-0.024337603 -0.02052009 0.008073185 -0.008022684 -0.03188697 -0.050847307 -0.065559246 -0.01958132
0.087433085 0.06789402 0.015355866 -0.013009056 -0.0771449 0.039155234 -0.07837214 0.08005185
-0.02734164 -0.08479458 -0.04259257 0.0057247854 -0.004379921 0.08486243 -0.06258898 -0.043872498
-0.025133159 0.0699383 0.042967774 0.026531259 -0.055014405 -0.02502075 -0.04655424 -0.06984683
0.050023884 0.057815403 -0.033527248 0.0044879965 0.021746928 0.007061694 0.0202229 0.05157352
-0.060467325 -0.08469507 -0.04012913 0.009956054 -0.06750824 -0.06650921 0.08365016 0.074925624
0.024540192 0.04668541 0.07249464 -0.014013913 0.08023425 -0.015026458 -0.03336174 0.011480096
0.04625804 0.07846994 0.007641919 0.08407577 -0.08206217 0.04742714 0.0015344719 0.03535757
-0.017876092 0.0494298 -0.057103056 -0.013704713 0.028696246 0.023082143 -0.01359436 -0.012842671
-0.038868036 -0.06997415 -0.04178776 0.06849425 0.027184546 0.079485506 -0.076129094 -0.011677574
-0.045706075 -0.08629702 0.02231116 -0.049114943 0.08488032 0.017328171 0.021296993 0.050039027
0.04803021 -0.063201465 0.0599194 0.018370999 0.076042525 0.030561343 0.078052 0.07473437
