use-cases/radio-astronomy/models/trained_CNN1D_test_v0.pt (torch, 560700 bytes, 9 tensors)

conv1.weight f4 [16, 1, 3]
000000 16 b7 c4 3d bb 0d 08 bf b4 86 62 be 2d 71 8e be
       0.09605233 -0.5314595 -0.22121698 -0.2782072
000010 20 79 ea be b3 6c b8 be 8e d1 12 be 25 e9 50 be
       -0.45795536 -0.3602043 -0.14337751 -0.20401438
000020 31 6f 30 bd a6 e2 03 3e 25 ae 9b be 9b 4c ca bd
       -0.04307479 0.12879428 -0.304063 -0.098778926
000030 a6 33 78 be c3 d6 ee be 30 f5 f4 be 8c 77 81 3e
       -0.24238452 -0.46648225 -0.47843313 0.2528652
000040 ed 94 0d 3d c4 29 99 3e 14 64 8a be 52 a2 b8 3e
       0.034565855 0.29914677 -0.2702948 0.3606134
000050 61 7f 01 be 04 94 c6 3d 09 11 1e bc 10 49 8c bd
       -0.12646247 0.096962005 -0.009647616 -0.06849873
000060 14 c5 e8 bc 94 b3 8b 3e 09 5b fa bd d6 0c 2c 3e
       -0.028414287 0.27285445 -0.12224395 0.16801772
000070 c1 8b 99 bc c5 82 b2 be 5f a9 8d 3e f8 40 98 bc
       -0.018743398 -0.34865394 0.27668282 -0.018585667
000080 f7 2c 98 3e d8 71 0f bf 8d 83 c5 be 02 0d 4c 3e
       0.29721805 -0.56033087 -0.38576928 0.19926837
000090 3a 45 33 3d 5f 45 9a bc 15 73 12 3e 0c b4 0c 3f
       0.04376719 -0.018831907 0.14301713 0.5496223
0000a0 ac 1e 37 3e a3 be 01 3f b7 03 5f be a5 7a 08 bf
       0.17882794 0.50681514 -0.21778761 -0.5331214
0000b0 66 6d a6 be e9 96 b9 3e 3a 36 c9 bb 9f 36 70 be
       -0.3250534 0.36247948 -0.0061404975 -0.23458336

conv1.bias f4 [16]
000000 1c db 0a bf 64 94 e7 3e cd 7b 0c bf cf 6a 17 be
       -0.54240584 0.452304 -0.54876405 -0.14786838
000010 c8 3d 17 3f ca f4 86 3e f3 5d 9c be 1c 66 97 be
       0.59078646 0.26358634 -0.30540428 -0.2957009
000020 95 88 47 3e c2 41 2d 3c 32 22 3a 3e fd 21 c4 3c
       0.19485696 0.01057476 0.18177107 0.023941988
000030 3b a2 ba 3d 7d 40 6e 3e 61 04 77 3d a7 9a e0 3e
       0.09112974 0.23266788 0.06030691 0.4386799

conv2.weight f4 [32, 16, 3]
000000 fe 26 36 3d 67 f1 de bd d9 54 29 bd 7d ce 68 3d
       0.04447078 -0.108858876 -0.041340683 0.056837548
000010 e7 d3 55 bd 4e 40 36 3e bb ea 4a bc c2 2a 89 bd
       -0.05220404 0.17797968 -0.012385066 -0.066976085
000020 27 4b 6c bc 9d b7 fb bd 57 28 ee 3d 6e 9b aa 3c
       -0.014422215 -0.12290881 0.11628788 0.020826068
000030 b7 cb 0e 3e d6 fa 03 3e a6 d4 a0 bc 07 2b 09 be
       0.13944899 0.12888655 -0.019632649 -0.1339532
000040 54 a4 2f 3c a4 82 ed 3d 2d 53 68 bd d5 bb 73 3c
       0.010720331 0.11597183 -0.056719948 0.014876326
000050 f6 90 70 3d 5a d3 0c 3e 66 81 98 bc db 8d cb 3d
       0.058731996 0.13752499 -0.01861639 0.09939166
000060 51 4f ea 3d 27 33 19 bd 1e c8 0a 3e e9 6e 3a 3d
       0.1144091 -0.0374023 0.13552901 0.04551593
000070 f2 8b f1 bd 41 af c8 3d 44 bd ab 3d 8a f0 a2 bd
       -0.117942706 0.09799052 0.08385709 -0.079560354
000080 0b b1 3e bd b0 b6 0b 3d 5e 1a b9 bd 31 e2 de 3c
       -0.04655556 0.03410977 -0.09038232 0.027207466
000090 7e cf be bd bf e6 8b bc 8e 71 dd 3d 6d 8c 0c 3e
       -0.0931692 -0.017077802 0.108126745 0.13725443
0000a0 29 da be bd 1e 9b 0e be fb fb 33 bd 3a 67 01 3e
       -0.093189545 -0.1392636 -0.04394148 0.12637034
0000b0 0b bd 95 bd 8e 6d 09 3c 7a c2 ae 3d 64 60 0d 3e
       -0.07311448 0.008387936 0.08533187 0.13806301
0000c0 b7 75 71 bc 62 2a 06 be f4 9b 92 bd 3e 47 14 3e
       -0.014737538 -0.13102105 -0.07158652 0.14480302
0000d0 4e 2b ef 3d 09 da 9b 3d 88 64 13 3e 3d 60 c0 bd
       0.116781816 0.07609946 0.14393818 -0.09393356
0000e0 10 f5 2b 3d 7f 69 36 3d ba d0 c7 3d f4 a6 0d be
       0.041981757 0.044534203 0.09756608 -0.13833219
0000f0 79 b3 70 3c d2 98 a2 3d 94 4a aa bc f2 7c ce bd
       0.014691227 0.079393044 -0.020787515 -0.10082425
000100 b0 e9 dc 3d e4 50 0f 3e 5e be b4 bd 50 f3 f9 3d
       0.1078676 0.13995701 -0.08825372 0.12204611
000110 b2 95 b0 bc de bb 5c bc 35 a8 b1 bd 11 a3 01 3e
       -0.021555755 -0.013472525 -0.08674661 0.12659861
000120 75 dd 07 bd 40 a4 b3 bb 9b d4 61 bc 5d 28 9b bc
       -0.033170182 -0.0054822266 -0.013783599 -0.018940145
000130 2e bd be bc 5f c1 8b 3c a1 df 25 bc 38 f3 24 3d
       -0.023283567 0.01705998 -0.010124118 0.040271014
000140 2f a3 23 bd 35 03 f9 bd 85 36 ad bd 07 50 02 3e
       -0.039950546 -0.12158815 -0.084576644 0.1272584
000150 49 75 c4 3c 10 22 ed bd 84 41 e9 bd d1 f7 36 bd
       0.023981707 -0.115787625 -0.11389449 -0.04466993
000160 b9 54 11 3d 40 8a c5 3d 1b da bf bc 04 47 e7 bc
       0.03548119 0.0964551 -0.02341943 -0.028232105
000170 b3 0d ba 3c 52 e5 81 3d a6 98 42 3d 31 80 06 3d
       0.02271161 0.063425675 0.04750886 0.032837097
000180 b6 9c 44 3d e5 13 11 be 06 14 fa 3c c4 35 11 3e
       0.048001014 -0.14167745 0.030527126 0.14180666
000190 6d 7c 28 3e a2 7d a7 bd 5c 5e 4a 3d 03 8a d3 bd
       0.16453715 -0.081782594 0.049406394 -0.10329058
0001a0 41 2d 35 bd a1 f4 b5 bd 0e 03 0d 3e 9a 48 d5 3d
       -0.04423261 -0.0888455 0.13770697 0.10414238
0001b0 b9 e2 23 3e 80 85 0d 3e 34 2f ee 3d 2e e6 fb 3d
       0.16004457 0.13820457 0.11630097 0.12299763
0001c0 52 49 07 3d 7b fc 2b 3d 94 a8 72 3a cf de 00 3e
       0.033028908 0.04198883 0.00092566875 0.12584995
0001d0 06 1d f6 bd 06 69 8d bd 77 a2 dc 3b 8c fc 26 bd
       -0.120172545 -0.06904797 0.0067332345 -0.04076819
0001e0 df bd 8c bd ae f4 05 be 51 63 4f 3b 3c 4d ad bd
       -0.068721525 -0.13081619 0.003164489 -0.08461997
0001f0 e3 49 89 bb 62 33 0a 3d cf 38 80 bd 6d 71 f5 3d
       -0.004189716 0.03374041 -0.062608354 0.11984525
000200 f8 cd d4 bd b2 23 e4 3d 7b 60 a6 bd ac 1f 8b 3d
       -0.10390848 0.11139621 -0.08123871 0.0679315
000210 26 c6 f5 3d 64 42 c9 bd 41 7d 73 bd 47 56 b1 bd
       0.120006844 -0.09827116 -0.059445623 -0.08659034
000220 a1 28 ff bd 8a 7d b1 3d c4 b5 71 bd eb 59 8f 3d
       -0.12458921 0.08666523 -0.059011236 0.06999572
000230 94 be 8a 3d ad 29 8c bd e4 bb e0 3d a6 31 3d bd
       0.06774631 -0.068438865 0.10973337 -0.046189927
000240 f0 68 11 be 04 23 a0 3d 5d de bf 3c ad 17 ea 3d
       -0.14200187 0.07819179 0.02342146 0.11430297
000250 fc c5 55 3d a3 86 a2 bd ce 9d 96 3d 27 73 57 3d
       0.052190766 -0.07935836 0.073543176 0.052600052
000260 fc 16 09 3e 7c e4 fc 3c 0a 08 81 3d e8 d2 42 bc
       0.13387674 0.030870669 0.063003615 -0.011891104
000270 2c 76 ab 3d 7e f8 ab bd 8b 0c 11 be 7e 17 07 3e
       0.08372149 -0.083970055 -0.14164941 0.13192555
000280 6f f2 01 bd 24 a0 b0 bd a5 e0 1b 3d 90 fe 9d 3d
       -0.031725343 -0.086242944 0.038056035 0.077145696
000290 8d 53 02 3e b6 fd 33 3d 46 36 33 3b 2f 6d b4 bd
       0.12727185 0.04394313 0.0027345582 -0.088098876
0002a0 d6 ec 00 be db ed b8 bd 9f bc 3e 3d ca b9 05 3e
       -0.12590346 -0.09029742 0.0465666 0.13059154
0002b0 78 b3 02 3e 44 31 0e be 1a 5b 95 3d 6a 1d f9 bd
       0.12763774 -0.13885981 0.07292767 -0.121638134
0002c0 e0 0f 8a 3d 0e 63 cc bd 22 e9 98 bd 06 5a 57 bc
       0.06741309 -0.09979831 -0.074663416 -0.013144022
0002d0 8f 2e 3f bc 22 be 68 bd 12 fe 32 3d 59 08 0f be
       -0.011668815 -0.05682195 0.04369933 -0.13968028
0002e0 47 99 ee bc 62 da 01 3c 4e 66 88 3d 0d 1d 81 bd
       -0.029125823 0.007925602 0.06660138 -0.06304369
0002f0 21 e8 d6 3d a6 f3 6d bb 1d 81 dd 3d 69 b3 b1 bd
       0.10493494 -0.0036308556 0.10815642 -0.08676798
000300 91 68 44 bd 83 29 aa 3d ce cd b9 bd 79 71 1f 3e
       -0.047951285 0.08308699 -0.09072457 0.1557063
000310 19 7a 34 3e 27 c6 de 3d 2a 1c b3 3d 8d a2 a5 bc
       0.17624702 0.10877638 0.08745606 -0.020219112
000320 9f b4 cd bd 09 fc ea bc 4c 40 08 3e 47 d0 fc 3d
       -0.10044216 -0.028684633 0.13305777 0.12344413
000330 02 06 c6 3d cd ea 24 3e d3 2c 61 3e 3f 52 00 3e
       0.09669115 0.16105194 0.21989755 0.12531374
000340 b3 c5 1f bd 92 40 12 be 21 6a b8 3d 7c e2 9b bc
       -0.0390069 -0.14282444 0.090046175 -0.019028895
000350 dc 0b 6d 3d 03 da f0 3c d1 dd 54 bd 80 1e ef 3d
       0.057872638 0.029400831 -0.051969353 0.11675739
000360 5c 02 d3 3d 9e 25 70 bd 6c e8 1a bd 10 99 5b bd
       0.103031844 -0.058629625 -0.03781931 -0.05361277
000370 f0 8c 53 bd 7a 9c 95 3d 7a e6 66 3b 37 ca c8 3d
       -0.05164808 0.07305236 0.003523259 0.098041944
000380 3e 08 c8 3d cc e2 09 3e 0a 77 88 bd b1 0b 8c 3d
       0.09767197 0.13465422 -0.0666333 0.068381675
000390 8d d2 88 3d 79 7c 9f 3c 8d 13 6e 3c fa b5 19 3d
       0.066807844 0.019468533 0.014531028 0.037527062
0003a0 cc c1 97 3c d3 81 ed bd cc be ff bd fe 32 d1 3d
       0.018525027 -0.11597028 -0.124875635 0.10214804
0003b0 c0 dc d2 3d 23 26 c6 bd e0 2c 35 bc 49 aa 79 3b
       0.10296011 -0.09675243 -0.011058062 0.0038095883
0003c0 52 87 85 bb aa b3 f1 3d c6 1f 12 be cc 66 48 3e
       -0.0040749693 0.11801846 -0.14269933 0.19570464
0003d0 b6 32 bd 3a b3 7f 0f 3d ec 0a 08 3b ed a7 08 3d
       0.0014434669 0.035033893 0.0020758463 0.03336327
0003e0 9c 43 ea 3c 5d 70 0a be 52 df 27 3d 54 5f 76 3c
       0.028596692 -0.13519426 0.04098446 0.015037376
0003f0 67 c0 58 3e c9 64 77 3b 99 3f 8f bd ea e1 c4 bd
       0.21167146 0.0037749282 -0.06994552 -0.09613402

conv2.bias f4 [32]
000000 f3 6e 6a bd bb 1a 42 3d a5 3b ad 3d 56 fc 08 be
       -0.057234716 0.047388773 0.08458642 -0.13377509
000010 24 85 86 3c 22 49 7e 3d 93 2f de bd bc d2 e7 3d
       0.016420908 0.062081464 -0.10848918 0.11319491
000020 83 38 d1 3d fe a1 04 3d 13 d4 6d bc 8b 98 05 3e
       0.10215857 0.03238105 -0.014515894 0.13046472
000030 aa 42 28 3d 89 ac 2c bc e7 f2 34 bd 8c 91 0f 3e
       0.0410792 -0.010539182 -0.044176962 0.14020365
000040 a8 6c 04 bd ef 23 cb 3d 24 0d 45 3d 21 7d 84 3d
       -0.032330185 0.09918963 0.048108235 0.06469179
000050 87 e7 27 bd 8a 73 8c bd 92 62 21 3d c6 75 6a 3c
       -0.040992286 -0.06857975 0.039400645 0.014310306
000060 7f c1 0e 3e d4 68 05 be 27 b9 e6 3d 15 44 78 bd
       0.13941 -0.1302827 0.11265784 -0.060611803
000070 d5 ae 89 bd 9d 4c 6b 3d 8d 76 e6 bc f4 84 a4 bd
       -0.067228 0.05744611 -0.028132701 -0.08033171

conv3.weight f4 [64, 32, 3]
000000 a9 d1 48 bd 32 a3 96 3d bf c9 d9 3d d3 c7 aa bc
       -0.049028073 0.07355346 0.10634183 -0.020847237
000010 b0 af 02 3d 0e de 5b bc 68 a0 31 3d f5 35 5b bd
       0.03190583 -0.013419641 0.043365866 -0.053518254
000020 67 3e 83 bd 5c 41 1f 3c a4 5e c7 bc 23 6d 46 bd
       -0.06408387 0.009720173 -0.02433712 -0.048443925
000030 98 bb 09 3e 8e 2a 2a 3c 9d 32 7e 3c fd bd 84 3d
       0.13450468 0.010386122 0.015514997 0.0648155
000040 63 5e 46 3d ae 13 4e bd f5 e1 63 bd e5 ec 06 bd
       0.048429858 -0.050311737 -0.05563541 -0.032940764
000050 02 8a 7d bd b3 77 4b 3d 6c 6f af 3d e8 54 88 3d
       -0.061899193 0.0496747 0.08566174 0.066568196
000060 22 27 b4 bd e4 d4 bf 3d fc 70 ae bd 34 45 8e bc
       -0.087965265 0.093667775 -0.08517644 -0.017366983
000070 05 1c 16 3c 3a d6 d3 3d 83 4f d3 3c 49 de 97 bc
       0.009161954 0.10343595 0.02579475 -0.018538611
000080 ba a3 6f 3d ff 27 63 3d 1a 8d a9 3c b3 03 47 bd
       0.05850575 0.055458065 0.020697165 -0.048587512
000090 88 37 b7 3d 83 41 a9 bd 8e b2 8f 3d 7c eb 81 bd
       0.089461386 -0.082644485 0.070164785 -0.06343743
0000a0 e5 98 75 3c 4e e0 4e 3d fd c7 84 bd ae 7a 17 3d
       0.014990066 0.050506882 -0.06483457 0.03698223
0000b0 15 08 9a bd 9a 1d 9f 3d 29 fc ba 3d 11 d0 b1 3d
       -0.07521073 0.07769318 0.09130127 0.08682264
0000c0 61 9f 60 3d 4a ef f4 bc 85 8b 85 3c 51 7f ac 3c
       0.054839496 -0.029899258 0.01630188 0.021056803
0000d0 ee e7 5d bd 5e 42 d7 bc c7 c4 0e 3d 56 ba aa bd
       -0.054176264 -0.026276764 0.03485563 -0.08336322
0000e0 e2 cd c8 bd 0d 3b 00 3d f9 7c 07 3d b3 31 d9 3d
       -0.09804894 0.031306315 0.033078168 0.106051825
0000f0 e1 1d 4d 3d e3 6a 35 3d e6 0f 4d 3d d3 74 4e 3d
       0.050077323 0.04429139 0.05006399 0.05040438
000100 90 83 a7 3d 40 f5 c3 bd 71 cb 57 3d 8f 03 8d bd
       0.081793904 -0.09568262 0.05268425 -0.068854444
000110 97 58 00 3d 66 c2 77 bd f4 7c 41 3d 27 fa 64 bb
       0.031334486 -0.060488127 0.047238305 -0.0034939141
000120 36 be 84 3d 4b ce f1 3c 63 c1 cf 3d 12 f6 a2 bd
       0.06481592 0.029517313 0.101443075 -0.079570904
000130 5b d5 ae bb 70 59 cb bd b8 1f be 3a ce 4e e2 3d
       -0.0053354925 -0.09929168 0.0014505303 0.11050187
000140 07 d3 8d 3a 16 58 62 3d 2e cb e3 3d 94 ba 0a 3e
       0.0010820337 0.055259787 0.11122738 0.13547736
000150 9d 4b 33 bc 4c d0 88 3d f2 9b a0 bd 7f 5d 91 bd
       -0.010943321 0.066803545 -0.07842244 -0.07097911
000160 99 8e c2 bc 7b 85 4f 3d 8c f0 76 bd f8 19 5b bd
       -0.023749636 0.050664406 -0.060287997 -0.053491563
000170 b4 b0 0d 3d 43 5a 24 bd fa e3 54 bc 50 79 32 3d
       0.034592345 -0.040125143 -0.012993807 0.043572724
000180 cf fa b5 bd dd 5e 9c bd ff 04 a1 3d 2a 88 a9 3b
       -0.088857286 -0.07635281 0.07862281 0.0051737027
000190 58 e6 8c bc c6 9d 97 bc 5a eb 95 bd 5c ab 88 3d
       -0.01719968 -0.01850785 -0.073202804 0.06673309
0001a0 82 a9 94 bd 53 26 32 bd 7f 4d 50 3c fa ee 80 3c
       -0.072588935 -0.04349358 0.012713789 0.015738953
0001b0 29 bc ea 3c 1d 5b c7 3d d8 84 40 bd 31 df 88 3d
       0.028654175 0.09734175 -0.04700169 0.066831954
0001c0 a2 20 44 3d 83 95 a7 bd 52 71 74 3c 07 6d a7 bd
       0.047882684 -0.08182814 0.014919596 -0.08175092
0001d0 1c 4c 38 bd c5 aa c1 3c 2c b5 95 3d 16 3a 2d bd
       -0.04499446 0.023641 0.073099464 -0.042291723
0001e0 af da 95 3c 83 8e 38 3d 3d d5 ae 3d 18 e5 ba 3c
       0.018292753 0.045057785 0.08536766 0.022814319
0001f0 ef 97 bd bd 79 1e b6 3d 2b 6a 13 bd 78 b7 4d bd
       -0.09257495 0.08892531 -0.03598992 -0.050223798
000200 89 45 fd 3c 6a 64 91 3d 6e f0 0a bc de 04 1d bd
       0.030916946 0.070992306 -0.0084801745 -0.03833472
000210 72 10 c6 bd 27 82 c3 3d 58 4b 81 3c dd 48 a7 3c
       -0.096711054 0.09546309 0.015782997 0.020420486
000220 f5 d5 41 3d f5 ca c8 bd c8 0a 2d 3d 12 34 5d bc
       0.047323186 -0.09804336 0.04224661 -0.013501184
000230 cf 7d 63 bd f8 dc 03 3d dd e5 0f 3d e7 50 84 3d
       -0.055539902 0.032193154 0.035131324 0.064607434
000240 c5 0f e4 bc 03 74 66 bd 46 14 8f bd 6e 06 c0 bd
       -0.02783955 -0.05626298 -0.06986289 -0.09376226
000250 35 03 f0 3c 59 7b 14 bd 1e 7d 03 3d 89 dc 35 3d
       0.029298404 -0.036250446 0.032101743 0.04439977
000260 e2 e3 71 bd b1 ff cb 3d a9 86 cf bd 50 15 a8 bd
       -0.059055217 0.09960879 -0.10133106 -0.0820719
000270 45 f7 e4 3b 0a cc a9 3d 47 b9 2a bc 11 8a 93 bd
       0.0069874846 0.082908705 -0.01042015 -0.072040685
000280 ff 96 53 bc f3 92 a4 bd 6f 18 cd bd 20 bb 8f bd
       -0.012914418 -0.08035841 -0.10014426 -0.07018113
000290 79 ed 92 bc 3e c7 30 bc 03 8d 8e bd 4d d0 c0 3d
       -0.017935501 -0.010789691 -0.069604896 0.0941473
0002a0 2e ae 73 bb 8d 9b 93 bd b7 49 89 bd 4d 58 90 3d
       -0.0037182677 -0.07207403 -0.06703513 0.07048092
0002b0 de b9 8b 3d 18 0e cf bc 5a 04 1b 3d 38 d6 fa bc
       0.06822561 -0.025275275 0.037845947 -0.030619726
0002c0 08 2e 98 bd 1b 6b c1 bd e0 ba ae bc d8 74 21 bc
       -0.07430655 -0.09444257 -0.021329343 -0.009854518
0002d0 ad fd d1 bc 0c aa 17 3a a0 50 2f 3d aa d9 15 3b
       -0.025633657 0.0005785532 0.0428015 0.0022865334
0002e0 0c a3 55 3d 46 c4 58 3d b6 9f 57 bc 9e db 14 3d
       0.052157447 0.052921556 -0.013160637 0.036342256
0002f0 8c 0a 6f bd 47 3c 8e 3c 3b d5 20 bd 02 14 35 3d
       -0.058359668 0.017362727 -0.039265852 0.044208534
000300 9e 96 a1 3d 02 1f ac 3d b5 a2 58 bd 96 bd ac 3d
       0.07890056 0.08404352 -0.052889545 0.08434598
000310 23 40 3f 3d 3e e7 8b 3c b7 98 45 bd 46 5a b5 bd
       0.046692025 0.017078038 -0.048241343 -0.08855109
000320 7c 66 3a 3d 5e 9e 94 bc f1 12 14 3d 72 92 17 3d
       0.045507893 -0.018141922 0.036150876 0.037004896
000330 48 8d 9c bd a3 e5 4f 3d 27 27 b3 bd 3e 4d 9a bd
       -0.07644135 0.050756108 -0.08747702 -0.07534264
000340 55 20 84 bc 96 93 70 bd 6d 24 ac bd 29 52 40 bd
       -0.016128698 -0.0587345 -0.08405385 -0.046953354
000350 a5 1f c4 bd ca 25 69 3d 86 5a c9 3c 83 c8 90 bd
       -0.09576348 0.056920804 0.024579298 -0.070694946
000360 25 37 74 3d 9e 66 ad bd 3e 0e d0 bd 9c ee 60 3d
       0.059622902 -0.08466838 -0.101589665 0.054915056
000370 78 25 41 3d 64 ce 54 bd ba 1b b1 3d cf 49 23 3d
       0.047154874 -0.051954642 0.086478665 0.03986531
000380 1a 43 ac 3d 3b 34 69 bd eb 42 96 3c 81 cd 2d bc
       0.08411236 -0.056934576 0.018342456 -0.010608078
000390 b0 b8 c9 3c 8e 41 d5 bd 1a 03 9f 3c 89 33 bb bd
       0.024624199 -0.10412894 0.019410659 -0.09140689
0003a0 47 58 9d bd 82 1d 44 3c bf 94 2d bb 3f 5d 96 bd
       -0.07682853 0.011969926 -0.0026486365 -0.07342004
0003b0 3d c2 44 3c 09 7c 44 3d 17 2c ce bc 8b b0 76 3b
       0.012009201 0.04796985 -0.025167508 0.003764185
0003c0 71 a0 42 3d a1 50 c5 bd f7 0f 0b 3c 17 52 e8 bc
       0.04751629 -0.09634519 0.008487693 -0.028359456
0003d0 cd 99 89 bd 85 bf 2d bd 1d 2a b6 3d 14 20 83 bd
       -0.06718788 -0.042418975 0.08894751 -0.06402603
0003e0 62 69 0c 3d 32 23 3c bd e5 96 bd bd aa 9d d9 3c
       0.03428019 -0.045932002 -0.092572965 0.026564438
0003f0 84 8b ef 3c 72 3f ba bc 37 b1 a6 3d 91 e8 2e bd
       0.02924133 -0.022735331 0.0813927 -0.04270226

conv3.bias f4 [64]
000000 52 b5 cd 3d c3 dd d8 bc bf e4 92 3c fc d2 50 3d
       0.1004435 -0.026472932 0.01793134 0.05098246
000010 7d fd 89 bd 5e 5f b1 bd ef 43 9e 3d 58 d8 8f bd
       -0.06737802 -0.08660768 0.07727801 -0.07023686
000020 78 df 27 bd 9a 82 94 bd 8b fb 8b 3d ca 9a c9 bd
       -0.0409846 -0.07251473 0.068350874 -0.09843977
000030 0a a4 cf bd fb e7 4f 3d c8 c2 94 3c b0 11 6d 3d
       -0.1013871 0.050758343 0.018159285 0.057878196
000040 a2 61 a0 3d f0 8b b6 3d d0 b9 6c bc 4f 3f 6a bb
       0.07831122 0.0891341 -0.014448598 -0.0035743301
000050 9b 16 97 bd 5d 3f 87 3d 59 82 9c 3d 26 a1 e7 bc
       -0.073773585 0.066038825 0.07642049 -0.028275084
000060 79 71 24 3d 17 d5 b3 bc 65 bc 1f 3d f7 9e 5f bd
       0.04014728 -0.021952195 0.038998026 -0.05459496
000070 8e 05 34 3d 64 1f b2 bd dd 7f 5a 3d 5b c6 fd 3a
       0.04395061 -0.086973935 0.053344596 0.0019361483
000080 08 59 73 3d 25 aa 2c bc 2e fa 15 3d 22 f7 ef 3c
       0.05941108 -0.0105386125 0.036615543 0.029292647
000090 43 d8 4c bd e6 c8 bc bd 61 01 99 bb c1 ba c9 bd
       -0.05001093 -0.09218006 -0.004669354 -0.098500736
0000a0 e2 9d af 3d cc b2 5d bc 95 7e 4d 3c 61 5d 5c 3d
       0.08575036 -0.013531398 0.012542387 0.05379999
0000b0 f2 03 20 3d cb 79 99 3d c9 42 12 bd a2 13 ab bd
       0.039066263 0.07493933 -0.035708223 -0.08353354
0000c0 8b bd 64 bb ab 87 2a 3d 3b 78 b6 3d 70 15 17 bc
       -0.0034903015 0.04163329 0.08909651 -0.00922142
0000d0 e2 be 6f 3d a5 a9 47 3d a8 7d 15 bc 60 e8 9f 3d
       0.05853165 0.04874577 -0.009124197 0.07807994
0000e0 7f da 92 3d 6d f4 9d bd ba 6d bd 3d 47 ed 0b bd
       0.07170581 -0.07712636 0.09249444 -0.034161832
0000f0 48 59 46 3d 8e 77 ba 3d 52 30 81 bd 62 6f b5 bd
       0.04842499 0.091048345 -0.063080445 -0.08859135

fc1.weight f4 [128, 1024]
000000 8c 61 16 3c a6 29 c8 3c 88 2d 20 bc 8e 71 fa 3c
       0.00917853 0.024433922 -0.0097764805 0.030571725
000010 ec 84 29 3c da 89 ba bc 88 8a 84 3b 30 07 25 bb
       0.010346632 -0.02277081 0.0040448345 -0.0025181286
000020 a0 b8 1f bb c4 a6 72 3c be 1d c1 3c 6e e4 9c 3c
       -0.002437152 0.014810268 0.023573752 0.019151893
000030 fe 36 b0 3c f8 e9 8a 3b 60 78 b9 3a 50 1b 3c bc
       0.021510597 0.004239317 0.0014150254 -0.011481121
000040 00 6f 6d bc 08 f4 4e 3c 00 74 83 bb 60 bb 9f 3c
       -0.0144917965 0.012631424 -0.004011631 0.019498527
000050 a0 d4 c6 bc 20 e6 74 bc 16 26 ae 3c ca 7e a8 bc
       -0.02427131 -0.014947444 0.021258395 -0.02056827
000060 b8 9b 9c bc 88 8f dd bc 48 23 5a 3c e8 36 e1 3b
       -0.019117221 -0.02704598 0.013314076 0.0068730004
000070 3a d7 a2 bc 60 48 1d 3b 1a 91 ed 3c d0 c6 fd bb
       -0.019878019 0.0023999438 0.028999854 -0.0077446476
000080 40 ce bc bc e8 4b 83 bb c0 56 dd ba 82 07 98 bc
       -0.023047566 -0.0040068515 -0.0016886815 -0.018558268
000090 84 88 61 bc 5c d0 7f 3c 1e d5 be bc 6a eb e3 3c
       -0.013765458 0.015613642 -0.023294982 0.027822215
0000a0 80 7b cf bc 50 47 a9 bb e8 8a 5f bc 00 3e 67 b9
       -0.025327444 -0.005165972 -0.013643958 -0.00022052974
0000b0 d8 c5 fa bb 26 b5 da bc e4 c2 b1 bc dc d8 9a bc
       -0.0076529793 -0.026697706 -0.021699376 -0.018902235
0000c0 d0 9a 9e 3b 40 24 79 bc d0 36 ba 3b 7e 8f 93 3c
       0.0048402324 -0.015206397 0.0056828037 0.018012758
0000d0 90 aa d4 3b 64 be 27 3c b0 e7 8f bc 00 44 12 39
       0.006490059 0.010238264 -0.017566532 0.00013948977
0000e0 28 fa da 3b 90 85 21 bb e0 79 87 ba a0 25 6f bb
       0.006682653 -0.002464626 -0.0010336004 -0.0036490932
0000f0 70 2a 8b 3c d2 bd fa bc b0 cd ed bb 80 12 a5 bb
       0.01698801 -0.030608092 -0.007257186 -0.0050376058
000100 8e 66 b1 bc 84 2f 11 3c ac e0 0d 3c d8 cc f8 3c
       -0.021655347 0.008861426 0.008659523 0.030371115
000110 74 3f 37 3c 74 41 83 3c a0 e3 b0 3a 98 d5 90 bb
       0.011184562 0.016022421 0.0013495572 -0.0044199936
000120 d8 af 81 bc a4 e8 e6 bc 30 0a f2 bc f8 94 34 3c
       -0.01583092 -0.028187104 -0.029545873 0.011021845
000130 80 47 fe 3a 3c f9 65 3c 80 4a 8a bb 32 f4 99 3c
       0.0019399971 0.014036473 -0.004220307 0.0187932
000140 0c 8c c4 3c c0 da c9 3c a0 4a 88 3c ae b7 dd bc
       0.02399256 0.024640441 0.016637146 -0.027065124
000150 b2 f3 d2 3c 88 f8 50 bc 54 19 e3 3c 84 ea 0e bc
       0.025750969 -0.012754567 0.027722038 -0.008722905
000160 80 5f 8a 3a 8c 5c 0c 3c 30 64 d0 bb 3e 27 e2 3c
       0.0010557026 0.008566987 -0.0063595995 0.027606603
000170 54 00 47 3c a4 44 c4 3c 48 13 ef bc f4 cc 82 3c
       0.012146074 0.023958512 -0.029183999 0.01596687
000180 c4 6d d2 3c fc 81 04 bc 98 50 1b bc a4 1d 71 3c
       0.025687106 -0.008087631 -0.009479664 0.0147165395
000190 f0 28 ed bb 08 e4 40 bc 5a ad df bc 64 78 c3 3c
       -0.007237546 -0.011773117 -0.02730434 0.023861118
0001a0 30 66 20 3b a4 b8 2e bc b0 bc 70 bb e2 bf af bc
       0.002447497 -0.010664139 -0.003673356 -0.021453802
0001b0 a0 35 7c 3b 00 09 b4 ba c8 b5 02 bc 34 fc 8a bc
       0.0038484111 -0.0013735592 -0.00797791 -0.016965963
0001c0 dc ec 75 bc 9c 1c 0f 3c 28 84 17 bc d6 ac f7 3c
       -0.015010085 0.008734848 -0.009247817 0.030233782
0001d0 96 17 90 bc 24 37 32 3c 24 79 40 bc 46 0f cc bc
       -0.017589372 0.010877404 -0.011747632 -0.024909627
0001e0 60 0e 5d bc ca 46 eb 3c 60 45 f7 bb 58 89 b7 3b
       -0.013492197 0.028720278 -0.007546112 0.0056010894
0001f0 e2 1b 9b bc 92 ae de bc 40 86 bf bb 4c 32 25 bc
       -0.018934194 -0.027182851 -0.0058448613 -0.0100827925
000200 3c 86 51 3c f8 26 d5 bc 2c ad f0 3c 3e 65 b9 bc
       0.012788352 -0.026019558 0.02937945 -0.022631284
000210 60 e5 81 bb 74 24 03 bc f0 30 d4 bb 40 cb 1a 3c
       -0.003964111 -0.008004297 -0.0064755604 0.009447873
000220 70 be d0 3b ac 90 a4 3c 68 73 8d bc 08 11 4b 3c
       0.006370358 0.020088516 -0.017266944 0.012394197
000230 2a b0 82 bc 6e ac d9 3c 74 d6 1d 3c a0 6f 8f ba
       -0.015953142 0.026571479 0.009633649 -0.0010943301
000240 60 58 dc ba fa 79 ea 3c e0 2e a7 bc 76 9d 99 3c
       -0.0016811006 0.028622616 -0.020408094 0.018751841
000250 34 ab 44 bc d0 17 37 3c b4 01 53 3c b0 0d 91 bb
       -0.012003709 0.011175111 0.012878824 -0.0044266805
000260 e0 94 1f 3b ec ed 5d 3c 80 51 ed b9 a0 43 fd 3c
       0.002435021 0.0135454945 -0.00045264885 0.030916035
000270 c0 0f 28 3b 4c 1c 9b bc 7a d2 a2 bc 5a 46 93 bc
       0.0025644153 -0.018934391 -0.019875754 -0.017977882
000280 50 6e 3f 3c d8 fb bf bc 20 4c bd 3b e8 cf d5 3b
       0.011684015 -0.023435518 0.005776897 0.0065250285
000290 aa c8 c5 3c f8 d9 90 3c 80 c3 66 3a 78 33 b3 bc
       0.024143536 0.01768206 0.00088029355 -0.021875128
0002a0 2c 8e 72 bc 10 24 8c 3b 38 d0 ec 3b 60 8a d7 3c
       -0.014804404 0.00427676 0.00722697 0.0263111
0002b0 28 5d 99 bb 5a 6a b7 3c e8 c4 f5 bb 00 a7 d0 b9
       -0.0046802945 0.02238958 -0.0075002797 -0.00039797276
0002c0 8e e9 a6 3c a2 93 cb bc 52 b7 aa 3c 76 25 aa 3c
       0.02037504 -0.02485067 0.020839367 0.020769816
0002d0 a0 9f ce 3b 28 6a 33 bc a8 4e db bb 50 91 ca bc
       0.00630565 -0.010950603 -0.006692726 -0.024727494
0002e0 38 b7 88 bb 30 07 02 bb cc c0 92 bc 1c fe a3 3c
       -0.004172232 -0.001984071 -0.017914198 0.02001863
0002f0 52 7d e4 3c c2 e9 cc 3c e0 68 a5 bb a0 9d 43 bb
       0.027891789 0.025013808 -0.0050479025 -0.002984859
000300 0a 9a c9 bc 5e 7d 9f 3c b2 40 dc 3c 00 11 f5 b9
       -0.024609584 0.01946896 0.026886318 -0.00046742707
000310 a4 be 92 3c 6e 3d a6 bc 54 97 33 3c 06 00 d0 bc
       0.01791317 -0.020292964 0.010961372 -0.025390636
000320 a8 a7 79 bc 9a 0a bf 3c 88 65 26 bc 14 36 c6 3c
       -0.015237726 0.023320485 -0.010156043 0.024195708
000330 dc d7 b1 bc 78 e5 b2 bb 38 b8 13 3c dc 4d 7c 3c
       -0.021709375 -0.0054594837 0.009016089 0.0153994225
000340 10 40 50 3c 00 19 a5 3a fc 78 b8 bc a8 96 c3 bc
       0.012710586 0.0012595952 -0.022518627 -0.02387555
000350 c0 37 04 bb 48 4a 84 3b 40 0c 32 3c 74 d8 fc bc
       -0.002017483 0.0040371753 0.010867178 -0.030864932
000360 4e 24 ef 3c ca f1 9d 3c b6 3b 9b 3c c0 6a ae ba
       0.029192116 0.019280333 0.01894937 -0.001330696
000370 f4 f5 93 bc 22 83 ac 3c 04 2e 96 bc f4 d9 7b bc
       -0.018061616 0.021058623 -0.018332489 -0.015371788
000380 00 38 cf 39 f6 71 d9 bc 34 e9 44 3c 70 d7 37 bb
       0.0003952384 -0.026543599 0.012018491 -0.0028051995
000390 be 31 d8 3c 80 f1 6d bc 84 3a 42 bc 12 c2 b7 bc
       0.026390906 -0.01452291 -0.0118547715 -0.022431407
0003a0 f6 7a fc bc 18 ce 4c bc e8 49 83 bb 56 c5 be bc
       -0.030820351 -0.012500308 -0.004006613 -0.023287456
0003b0 50 2d 72 bc c6 38 b8 3c 36 8b e5 bc 94 48 9f bc
       -0.014781311 0.02248801 -0.028020483 -0.019443788
0003c0 9c 10 d4 bc 3a b6 f3 bc bc cd 0f bc d8 76 c4 3b
       -0.025886826 -0.029749978 -0.008777078 0.0059956126
0003d0 52 ee a6 bc 42 d5 f1 bc c0 42 87 3a 40 bb 06 3a
       -0.020377312 -0.029520635 0.0010319576 0.0005139597
0003e0 14 63 3a bc 66 6f 8f 3c d4 7d 78 bc de 41 d7 3c
       -0.011376161 0.017509174 -0.0151667185 0.026276525
0003f0 48 11 0e bc 14 a8 db 3c cc 6d c4 3c 7a 3c ae bc
       -0.008671112 0.026813544 0.023978136 -0.021269072

fc1.bias f4 [128]
000000 e0 d5 d4 bb 0f 6a d9 bc 11 7d 3a 3c ca e0 d6 bc
       -0.0064952224 -0.02653983 0.011382357 -0.026230235
000010 04 34 2a bc 59 f8 20 bc 05 58 27 3d 1e fc fd bc
       -0.010388378 -0.009824836 0.040855426 -0.031004008
000020 3e d2 d3 bc 0c 12 39 3c e0 04 80 bb d0 11 e1 bb
       -0.025857087 0.011295807 -0.003906831 -0.0068685785
000030 43 fe 13 bd 04 22 a5 3c b5 e9 83 bb 54 73 85 bb
       -0.036131155 0.020157821 -0.004025663 -0.004072586
000040 20 c9 11 3d 6c 97 44 3c c6 00 bb bc b2 97 c3 3c
       0.0355922 0.011998992 -0.022827517 0.023876045
000050 5c 99 19 3d 16 b6 e7 bc 0e d3 ac 3c 20 83 af bc
       0.03749977 -0.028285068 0.021096732 -0.02142483
000060 94 e7 ed 38 65 e4 03 3d 5e 58 44 bc d0 ac 9d 3c
       0.000113441754 0.032200236 -0.011983959 0.019247442
000070 fd 95 bc 3b 39 ea ca 3b 2c 89 68 3c 14 37 04 3d
       0.0057551847 0.0061924723 0.014192861 0.03227909
000080 fc 52 0e bc dc c5 10 bc 20 31 26 3b f2 2e 95 bc
       -0.008686777 -0.008836236 0.002535887 -0.018210862
000090 6f 41 9c 3c 2a ed a9 3c 70 ab c8 bc e8 f1 6e 3c
       0.01907417 0.020742971 -0.02449581 0.014584042
0000a0 75 1c 7d 3c e7 3d c1 bc f2 f6 65 bc 1c 09 57 3c
       0.015448679 -0.023589088 -0.014035927 0.01312473
0000b0 31 ed 8a 3c 11 83 2a bc f0 58 a6 3b a6 cd 94 3c
       0.016958805 -0.010407225 0.00507652 0.018164467
0000c0 d3 09 e9 bc 92 10 cf 3c f8 90 0e bd 94 e3 eb bc
       -0.028447067 0.025276456 -0.03480622 -0.028795041
0000d0 54 e3 15 bc 39 16 13 bc 22 65 9a bc b0 b3 c0 3c
       -0.0091484375 -0.008977466 -0.018847052 0.023523182
0000e0 46 f0 b9 bc e8 6e d3 bb 90 c0 45 3b 2c 67 a5 3a
       -0.02269758 -0.00645243 0.003017459 0.0012619249
0000f0 cb 74 a7 bb ec c5 46 bc f9 c1 3c 39 e8 0a 5e bc
       -0.0051103584 -0.012132149 0.00018001338 -0.013552405
000100 78 30 0f 3c 77 38 54 bc 80 99 10 3c 34 55 2a 3c
       0.008739583 -0.012952915 0.00882566 0.010396291
000110 8f f7 80 bc 33 16 d5 3c 62 fc 9b bc ec 4d 6e 3c
       -0.015743045 0.026011562 -0.019041244 0.014544945
000120 08 13 5d 3c f6 18 b9 bc bd f2 65 3c d6 9b cd bc
       0.013493307 -0.02259491 0.014034924 -0.025098722
000130 e0 b0 a9 3c 42 3a a8 3c 5c 9d cf bc b7 ad 10 3c
       0.020714223 0.020535592 -0.02534359 0.008830479
000140 e7 88 8f 3c 7e 5b 9a 3c 80 d9 e7 bb e9 60 bd 3b
       0.017521335 0.018842455 -0.0070754886 0.005779375
000150 2c 49 30 3d de 17 a8 bc 7d 56 be 3c 7c 8c 9e bc
       0.043038532 -0.020519193 0.0232346 -0.019354098
000160 16 d4 0e 3c b8 37 0e bd 91 f9 c2 3b 94 92 6d 3c
       0.008717557 -0.034721106 0.005950161 0.014500279
000170 5b 5f 0a 3d 65 4e 99 bc 31 31 b2 3c ae de 81 3c
       0.033782344 -0.01871414 0.021751972 0.015853252
000180 61 8f 00 3d 9b f5 8c bb 24 40 00 3c 10 23 6f 3c
       0.031386737 -0.0043017394 0.007827792 0.014595762
000190 4e 8e 7e 3c 78 af ff bc bb 00 8d 3c 77 0e af 3c
       0.015536858 -0.0312116 0.017212262 0.021369202
0001a0 a2 31 88 3c 3d 0e 20 3c 0c 9f 39 bc 8c 66 ae 3c
       0.01662523 0.00976902 -0.011329424 0.021289133
0001b0 6e 71 ea bc 50 95 c8 3b bf 56 11 bd 43 b5 f0 bc
       -0.02861854 0.006121315 -0.03548312 -0.029383307
0001c0 ec 17 1e bc 8a 3b 02 3d 46 6c e9 bc a0 6d cd 3c
       -0.009649258 0.031795062 -0.028494012 0.025076687
0001d0 10 b9 73 3c 50 87 e6 3c 8e 50 03 3c 50 09 ed bb
       0.014875665 0.028140694 0.008014811 -0.007233776
0001e0 d5 6d 1d 3d c6 e6 b1 3c 39 2e b2 3b 90 9d 39 3b
       0.038434822 0.021716487 0.005437639 0.0028322674
0001f0 86 d9 b2 bb f4 11 e0 3c 64 6c b9 bc 6c d8 2b bc
       -0.0054580597 0.02735231 -0.022634692 -0.010488611

fc2.weight f4 [1, 128]
000000 8a 9b 1c ba f9 74 b4 3c 47 7a 90 3d 1c f3 4f 3c
       -0.0005974105 0.022028433 0.070545726 0.012692239
000010 80 a2 83 bd 62 b5 6c bb 79 d6 9d 3d 93 97 42 bd
       -0.06427479 -0.0036118855 0.07706923 -0.047507834
000020 92 cf 4e 3b 3b d6 f0 bc 97 fd 23 bc c0 7b cd bc
       0.0031556827 -0.029399028 -0.010009191 -0.025083423
000030 f0 55 2a bd 45 e0 0d bc a2 23 51 bd 3c e8 75 bd
       -0.041585863 -0.008659427 -0.051059373 -0.06003593
000040 21 ee 81 3d d1 e0 6f bd 4f 21 1e 3d 36 89 61 3c
       0.063442476 -0.05856401 0.038605984 0.013765624
000050 a2 d7 86 3d f4 b4 52 bd d3 f2 78 3c dc 1b 89 bd
       0.065840974 -0.0514421 0.015194613 -0.06694767
000060 2a 2f a8 bd 84 bb 80 3d 13 09 c2 3d 06 55 a1 3c
       -0.08212121 0.06285766 0.09474387 0.019693863
000070 f0 37 db 3c 61 1d 13 bd f4 10 5a 3d bc ab 04 3d
       0.026760072 -0.03591669 0.053238824 0.03239034
000080 78 ff 89 3d ea 4c b6 bc 16 72 9b 3d d8 25 6b 3d
       0.0673818 -0.022253472 0.075901195 0.057409137
000090 29 55 04 bd 59 77 d6 bc 31 70 9b bd 0c a6 ff bc
       -0.032307778 -0.026179956 -0.07589758 -0.031207107
0000a0 96 e9 e9 bb a5 43 cd bc 5d 00 82 bd f1 8b 1d bb
       -0.0071384413 -0.02505667 -0.063477255 -0.002403971
0000b0 ff 8e 3b 3b a7 df 88 bd 0a f6 24 bd 2f 8e 1f 3c
       0.0028619168 -0.06683283 -0.040273704 0.009738489
0000c0 a1 30 39 bd a5 60 02 bd cb 1d a6 bc 35 14 c4 bc
       -0.04521239 -0.03183045 -0.020277878 -0.023935417
0000d0 ec 99 5e bd a7 7c 98 bd 45 00 a2 bd 34 3a 8f bd
       -0.05434601 -0.074456505 -0.07910208 -0.06993523
0000e0 c6 57 8d 3d b6 48 96 bd 4e 38 a3 3d 23 0c 3b bc
       0.06901507 -0.07338087 0.07969724 -0.011416468
0000f0 75 0c 28 3d 22 a9 85 bd 5b 47 ab 3c 05 1c 5a bc
       0.041027505 -0.065264 0.020908048 -0.013312344
000100 d7 b9 86 bb 40 3e f6 3c 56 ac 4e 3d 16 46 9d bd
       -0.0041115093 0.03005898 0.05045732 -0.076793835
000110 9e c6 16 3c 44 33 54 bd 32 37 90 3b 2b 8b fc bc
       0.009202627 -0.051806703 0.004401111 -0.03082808
000120 bd 02 b4 bd 02 ec 80 3c d8 2b 6c 3d f5 37 95 bd
       -0.08789585 0.015737537 0.057659 -0.072860636
000130 6b bd b0 3d 4d a5 82 3d 68 36 da 3c e0 d3 15 bd
       0.086298786 0.06379185 0.026637271 -0.036579013
000140 66 d6 0b bd 4c ff b4 bd 60 f8 97 3d 12 c5 4c bd
       -0.034140013 -0.088377565 0.07420421 -0.04999263
000150 83 b4 b5 3d 9b 99 0a bd b4 af a6 bb e9 2e 81 bc
       0.088723205 -0.033837896 -0.0050868634 -0.015769439
000160 48 c1 98 bc 88 7e 21 bd af dc 3e 3d 82 ef f0 3b
       -0.018646851 -0.03942731 0.04659718 0.0073527703
000170 a8 db bc 3c c5 ff 89 bd 5c 9b bd 3d a6 c0 f7 b8
       0.023053959 -0.06738237 0.09258148 -0.000118137614
000180 f5 6c a3 3d 80 d3 f2 3c 82 41 82 3d af 59 4a 3d
       0.07979766 0.029641867 0.06360151 0.049401935
000190 9c 8f b9 bc 8e 3f 97 bd ab e6 4d bd e7 23 ae 3d
       -0.022651486 -0.07385169 -0.05026881 0.085029416
0001a0 18 f1 58 3c 17 88 2a bd 63 d7 91 bd e1 46 32 3c
       0.013241075 -0.04163369 -0.0712116 0.010881157
0001b0 a6 5c 60 bc c9 6b 6a 3d 3e 86 97 bd 9d af a5 bd
       -0.013693964 0.0572317 -0.073986515 -0.08090136
0001c0 5e ca 75 bd df ad 3c 3d c9 3a a9 3b bc 08 27 bc
       -0.060007446 0.046064254 0.0051644784 -0.0101949535
0001d0 25 34 e4 3c 62 c8 a8 3d fe 3d 74 3d 50 5a 28 3d
       0.027856896 0.08241345 0.059629433 0.041101754
0001e0 23 2f 5c 3d 51 5e 8d 3d 64 8b c4 3b c9 a0 20 3d
       0.05375589 0.06902755 0.005998062 0.039215837
0001f0 c0 0c 27 bd e8 0a fe 3c 9f 76 34 3d 6f d8 58 3c
       -0.040783644 0.03101106 0.04405844 0.013235196
