use-cases/radio-astronomy/models/trained_CNN1D_test_v0.pt (torch, 560380 bytes, 9 tensors)

conv1.weight f4 [16, 1, 3]
0.052735735 -0.31791788 -0.31135818 0.24995553 0.24986504 -0.30605295 -0.1559376 0.50409544
0.44332513 0.014376097 -0.19839054 -0.4064975 -0.0739793 0.33986858 -0.48293203 -0.53631663
-0.220795 -0.29934508 -0.1556383 0.34004724 -0.47383517 -0.21945268 -0.10287899 -0.38556808
0.021951796 0.2632309 0.08884034 -0.5767633 -0.21138325 0.07954337 -0.32244337 0.31536248
0.14148478 -0.40550873 -0.3552992 0.19544455 0.22447555 -0.45634514 -0.5205186 -0.36313587
-0.5633424 -0.38247833 0.32447276 -0.42350093 0.56719995 0.3787834 -0.40716535 0.46131238
00000000: 6d01 583d 22c6 a2be 576a 9fbe 58f4 7f3e
00000010: 9fdc 7f3e f9b2 9cbe 1bae 1fbe 660c 013f
00000020: 83fb e23e b989 6b3c e426 4bbe 7120 d0be
00000030: 7682 97bd 4103 ae3e de42 f7be 0c4c 09bf
00000040: 1618 62be c243 99be a65f 1fbe ac1a ae3e
00000050: 869a f2be 34b8 60be 38b2 d2bd 2e69 c5be
00000060: 41d4 b33c 33c6 863e edf1 b53d c2a6 13bf
00000070: da74 58be a2e7 a23d 4c17 a5be 3177 a13e
00000080: 63e1 103e d79e cfbe c7e9 b5be 9e22 483e
00000090: ebdc 653e 12a6 e9be b540 05bf f2ec b9be
000000a0: 3537 10bf 33d4 c3be 4b21 a63e 1dd5 d8be
000000b0: 0434 113f e6ef c13e fa77 d0be 2331 ec3e

conv1.bias f4 [16]
0.43551034 -0.13550596 0.06086629 0.54193604 -0.38941848 -0.4425915 -0.111309096 0.26677796
0.5155795 -0.50713676 0.50364256 0.23138563 0.57446235 0.47307754 -0.24779302 -0.5555441
00000000: 36fb de3e 13c2 0abe ee4e 793d 52bc 0a3f
00000010: dc61 c7be 5a9b e2be 06f6 e3bd 1f97 883e
00000020: 05fd 033f b7d3 01bf b8ee 003f 5bf0 6c3e
00000030: f70f 133f 3837 f23e 74bd 7dbe 2338 0ebf

conv2.weight f4 [32, 16, 3]
-0.07385734 0.08617392 0.12507689 -0.017767599 0.10347946 0.07951775 -0.06950494 0.04902692
-0.08833297 -0.02341216 -0.11255349 0.0697307 0.020758877 -0.07206723 0.0071788626 0.10210528
0.053188134 -0.014184921 -0.13045792 0.11058681 -0.093074225 0.099214755 -0.07825059 0.1127789
-0.03475349 -0.07605001 0.13880852 -0.110635325 0.020359447 0.11500711 -0.042682018 -0.00020340353
0.12306392 0.127793 0.11743328 -0.021797165 -0.10469992 0.13906337 0.012691978 0.12782712
0.11891509 -0.06959467 -0.109355554 0.08440604 0.14091475 0.098924376 -0.1248182 0.016244939
0.04266331 -0.10034782 0.026691709 -0.032786246 -0.13353707 0.031040354 0.11173663 0.11357572
-0.13206168 -0.14273304 0.02263519 0.08805352 0.07520698 -0.01780282 -0.0026703267 0.007518912
-0.071575336 -0.016480837 -0.01506883 0.019990182 -0.032738283 0.054750074 0.019144565 -0.08407052
-0.095052965 0.06937376 0.104284376 -0.11816794 -0.09135355 0.031951025 0.03437793 0.11293846
0.105350025 -0.016507223 -0.01623747 0.13753359 -0.12900539 0.068801515 0.1198192 0.04509019
-0.012011901 0.101215586 -0.062422823 -0.13603859 0.06295847 0.12422487 -0.0777946 0.03514876
-0.0098425355 0.008791715 -0.12188856 -0.011979563 -0.13633946 0.013064907 0.122333474 -0.077036574
-0.13904804 0.020080524 -0.010759948 0.07538649 0.11973384 -0.053253174 -0.12180686 -0.1353015
0.044639092 0.109904006 0.13783434 0.04840844 0.002824169 -0.099329755 -0.06829098 -0.10112304
-0.1264412 0.1011579 -0.015096235 -0.09541183 0.024305489 0.00614617 0.032603633 -0.05393268
0.031648353 0.12561552 0.11321809 0.12847646 -0.044302993 0.090015925 0.06843813 0.06780594
-0.1275548 -0.059794106 -0.092083395 0.10232778 0.054669343 -0.10505475 -0.1386593 -0.083659716
0.058584284 -0.0047178455 -0.021093432 -0.06861543 0.07533929 -0.024150187 -0.089212656 -0.0065722154
-0.14100608 -0.04891684 0.10262217 -0.07808774 0.12790693 -0.005248978 0.11314567 -0.09438571
-0.03981131 -0.0621524 0.13712995 -0.022882849 0.008890966 0.11023499 -0.12632255 -0.12181225
0.019570744 -0.02327498 0.10642029 -0.06991628 0.04783533 0.057655495 0.08430196 0.0718905
-0.07346224 0.13197841 -0.09300205 0.101073615 -0.051151562 -0.13149068 0.12784803 0.11412658
-0.03311514 -0.051149838 -0.03833329 0.0945805 0.00039115967 0.13087559 0.12024337 0.124735504
-0.07167267 -0.10042854 0.11894166 0.09457973 0.10205163 -0.12523529 -0.10766936 -0.1379636
-0.056424774 -0.12447082 0.055875357 -0.019326825 -0.036156796 -0.03171853 -0.03894225 -0.0065255533
-0.02854428 -0.1266278 -0.014360805 -0.053049486 0.099281564 0.024608906 0.123006195 0.12937221
0.0045798733 0.12284317 -0.05376816 -0.13104062 0.007391671 0.07573727 -0.13204174 0.032023944
-0.08827769 0.08061503 -0.06820858 0.0024405355 0.056734487 -0.12572716 -0.03250075 -0.02276822
0.09447735 0.10420609 0.0851803 0.049057968 -0.04993279 -0.12424926 0.039721835 -0.09834259
0.13425347 0.0031484622 -0.09426621 -0.124998726 0.07400545 0.072385006 -0.028217707 -0.017744873
-0.04134578 0.059816055 0.13453133 0.03579951 -0.07916899 0.03659735 0.11458046 0.031021053
00000000: 8442 97bd f47b b03d 2814 003e 5b8d 91bc
00000010: 0aed d33d 34da a23d 9b58 8ebd 74d0 483d
00000020: ebe7 b4bd dcca bfbc 7282 e6bd f8ce 8e3d
00000030: 850e aa3c fc97 93bd aa3c eb3b 931c d13d
00000040: cddb 593d df67 68bc c396 05be 567b e23d
00000050: b39d bebd 1b31 cb3d d841 a0bd a0f8 e63d
00000060: ad59 0ebd 1cc0 9bbd d223 0e3e c694 e2bd
00000070: dbc8 a63c d988 eb3d 57d3 2ebd b848 55b9
00000080: f008 fc3d 2bdc 023e dc80 f03d f88f b2bc
00000090: e96c d6bd a166 0e3e 04f2 4f3c 1de5 023e
000000a0: c189 f33d a687 8ebd cef5 dfbd 13dd ac3d
000000b0: f54b 103e dd98 ca3d afa0 ffbd 1b14 853c
000000c0: b9bf 2e3d 2883 cdbd 92a8 da3c df4a 06bd
000000d0: f1bd 08be 5748 fe3c 2dd6 e43d 639a e83d
000000e0: 2d3b 07be 9c28 12be 6f6d b93c 6755 b43d
000000f0: 1e06 9a3d 38d7 91bc a600 2fbb 3561 f63b
00000100: 1796 92bd d202 87bc 41e3 76bc 73c2 a33c
00000110: 9418 06bd 9d41 603d 10d5 9c3c 2a2d acbd
00000120: 21ab c2bd d413 8e3d 0c93 d53d 0802 f2bd
00000130: 9217 bbbd 14df 023d dfcf 0c3d 484c e73d
00000140: c1c1 d73d 283a 87bc 7104 85bc 9bd5 0c3e
00000150: fd19 04be cfe7 8c3d c563 f53d 7eb0 383d
00000160: 90cd 44bc 1e4a cf3d 13af 7fbd b34d 0bbe
00000170: 5ff0 803d 9c69 fe3d c652 9fbd 25f8 0f3d
00000180: 9642 21bc 200b 103c b6a0 f9bd ee45 44bc
00000190: 929c 0bbe 310e 563c f989 fa3d 5ac5 9dbd
000001a0: 9c62 0ebe e97f a43c 7e4a 30bc 3b64 9a3d
000001b0: 0437 f53d 0020 5abd e075 f9bd 7a8c 0abe
000001c0: 7bd7 363d 5a15 e13d 7224 0d3e ee47 463d
000001d0: b115 393b 666d cbbd 24dc 8bbd 9919 cfbd
000001e0: cd79 01be e02b cf3d 3356 77bc 4767 c3bd
000001f0: 4e1c c73c d065 c93b 638b 053d 84e8 5cbd
00000200: b4a1 013d 5ba1 003e e3de e73d 558f 033e
00000210: 0e77 35bd 455a b83d 4a29 8c3d d7dd 8a3d
00000220: ba9d 02be aaea 74bd 3896 bcbd 3a91 d13d
00000230: f6ec 5f3d f226 d7bd b4fc 0dbe c955 abbd
00000240: 13f6 6f3d 2898 9abb 22cc acbc 3f86 8cbd
00000250: 7c4b 9a3d 9dd6 c5bc 20b5 b6bd bd5b d7bb
00000260: e663 10be 065d 48bd 922b d23d 77ec 9fbd
00000270: 09fa 023e 9eff abbb ebb8 e73d 4c4d c1bd
00000280: 2f11 23bd 8493 7ebd cb6b 0c3e d074 bbbc
00000290: 6aab 113c e2c2 e13d b35a 01be b378 f9bd
000002a0: d352 a03c 2cab bebc e2f2 d93d 4430 8fbd
000002b0: fbee 433d 2b28 6c3d 82a6 ac3d 543b 933d
000002c0: 5f73 96bd 5925 073e dc77 bebd afff ce3d
000002d0: 4d84 51bd 7ea5 06be 98ea 023e 32bb e93d
000002e0: bea3 07bd 7e82 51bd 5e03 1dbd 6cb3 c13d
000002f0: 9014 cd39 4004 063e 2842 f63d 5475 ff3d
00000300: 1fc9 92bd 7aad cdbd af97 f33d 04b3 c13d
00000310: 7200 d13d ae3d 00be c181 dcbd 5446 0dbe
00000320: aa1d 67bd 8fea febd 8fdd 643d 4a53 9ebc
00000330: 2619 14bd 4aeb 01bd e981 1fbd 4fd4 d5bb
00000340: b2d5 e9bc b8aa 01be 9549 6bbc 6b4a 59bd
00000350: 2254 cb3d 9e98 c93c acea fb3d 267a 043e
00000360: c312 963b 3395 fb3d 013c 5cbd 832f 06be
00000370: d535 f23b 241c 9b3d f335 07be 8a2b 033d
00000380: efca b4bd 7e19 a53d f1b0 8bbd 64f1 1f3b
00000390: 6c62 683d 9fbe 00be 821f 05bd 6b84 babc
000003a0: 577d c13d 016a d53d 0273 ae3d 02f1 483d
000003b0: 5386 4cbd 6576 febd 5db3 223d d767 c9bd
000003c0: be79 093e 6e56 4e3b a50e c1bd 55ff ffbd
000003d0: 2b90 973d 973e 943d d228 e7bc b25d 91bc
000003e0: 315a 29bd ae01 753d 95c2 093e 82a2 123d
000003f0: 5a23 a2bd 1ae7 153d 29a9 ea3d dd1f fe3c

conv2.bias f4 [32]
0.041070055 -0.11023459 0.012155639 0.012224738 -0.0028123998 -0.058859117 0.12770079 -0.01488453
-0.03006697 0.055545375 -0.03144347 -0.1353921 0.12355736 -0.0064928974 -0.043808512 0.06881035
0.12006087 0.099543706 -0.011150076 -0.0024086046 -0.02364766 -0.05406122 0.035110597 -0.067474246
0.04124298 0.09747903 -0.007828721 0.053726107 0.02425727 0.06497042 -0.09175355 0.09272122
00000000: 1339 283d acc2 e1bd 7228 473c 444a 483c
00000010: 3d50 38bb 4216 71bd ffc3 023e 3ede 73bc
00000020: 024f f6bc 8c83 633d deca 00bd 3aa4 0abe
00000030: a40b fd3d 5fc2 d4bb 8e70 33bd 71ec 8c3d
00000040: 79e2 f53d 92dd cb3d cfae 36bc aed9 1dbb
00000050: bdb8 c1bc 4c6f 5dbd 21d0 0f3d f02f 8abd
00000060: 66ee 283d 16a3 c73d 0944 00bc e80f 5c3d
00000070: 2fb7 c63c 360f 853d 49e9 bbbd 9fe4 bd3d

conv3.weight f4 [64, 32, 3]
-0.06744677 -0.059583526 -0.059832767 -0.09910149 0.020150451 -0.026165769 -0.021801924 0.010053675
0.011827089 0.08761534 0.099279664 -0.064167425 -0.057090163 0.032445125 -0.08130498 0.04661669
-0.077910654 0.049330354 0.024592878 0.09540146 0.09204402 0.08072706 -0.01050646 0.035578374
0.0011010907 -0.010982862 -0.08114993 0.011085732 -0.084435165 -0.022647044 0.025920745 0.07877694
-0.0067812707 -0.056644205 -0.025262596 -0.083056375 -0.050582305 -0.07366348 -0.05787616 0.07827058
0.07319405 0.039407697 -0.012732355 -0.029938024 -0.04126611 0.035034966 0.07868574 0.066281304
0.083423615 0.07904474 -0.014298758 -0.069689035 -0.05107077 0.06395276 -0.06635062 0.0876229
-0.02734284 0.06488882 0.008543027 -0.03286494 0.027257713 -0.05280326 0.07479689 -0.0013764363
-0.038328137 -0.048734054 -0.012257949 0.059219576 -0.032834 0.07818834 0.022523135 -0.02058761
-0.004062185 -0.03328536 -0.046150066 0.0008402478 0.05340957 -0.029185368 0.09711493 -0.046762444
0.05883805 -0.08780379 0.06435522 0.096218735 -0.089438744 -0.076419756 -0.096050024 0.06968943
-0.06648293 0.08802922 0.05835037 0.019919679 0.057305504 0.06264551 0.0465811 -0.0626633
-0.07817323 0.09335295 -0.04577565 -0.008946927 0.0308237 -0.0044750636 -0.042507537 -0.1019988
-0.073935404 -0.0047671506 -0.062684275 -0.060455814 -0.05528782 -0.083312325 -0.063343205 -0.040572453
0.040184725 -0.058400217 0.024312373 -0.033725943 0.057660565 -0.08060654 0.018658303 0.08512132
0.092869796 0.0016593375 0.0011143524 -0.087969445 0.03167288 0.035013698 -0.035402693 0.0724344
-0.08529168 0.08452755 -0.02779716 -0.002915177 -0.011076899 -0.09311314 -0.0012323334 -0.090743594
-0.061123647 0.094017945 0.09585906 -0.07487893 0.034820624 -0.017531773 0.0767873 0.0697841
-0.048580337 -0.006541683 -0.036839064 -0.037871495 0.068600915 -0.09590289 -0.056993242 0.061605256
-0.074385256 0.043173753 0.009167973 -0.08390198 0.095849246 0.06279439 0.013515128 -0.10157994
0.057773814 -0.071467705 -0.093450926 0.009383312 -0.10043244 -0.058012195 -0.037734047 -0.036197364
0.06628977 -0.07223681 -0.08569284 0.014015874 -0.029558651 0.011859854 0.009992671 0.06812964
-0.035840634 0.04315953 -0.044946946 -0.08061671 0.078069724 -0.09448991 -0.0045836032 -0.06923196
-0.030795535 0.05772782 -0.015141456 0.070579365 -0.046713106 0.07236643 0.023003621 -0.019477297
-0.05645904 0.044138733 -0.1007799 -0.087175466 0.07730217 -0.06487129 -0.10043531 0.10146217
-0.039130546 -0.06610936 0.04512004 -0.013208562 -0.042431545 -0.012313041 0.07389131 -0.029401226
0.09379532 -0.04454312 0.07177207 -0.09401887 0.06663378 0.038076118 0.06710217 -0.08647735
-0.011452852 0.034850333 0.029333299 0.006575835 -0.081063464 0.035602484 -0.06988376 0.012655449
-0.10011682 0.092592634 -0.0043001664 -0.08507521 -0.010510184 -0.05815119 0.085382156 -0.097063966
0.09030157 -0.046343736 -0.0279404 0.011837661 0.010260948 -0.028740207 0.044659995 0.07658516
-0.083774954 -0.03764163 -0.014672075 -0.0915686 0.013379894 -0.015701395 0.04757875 -0.039091382
-0.10125672 0.08664887 0.012973245 -0.08291535 0.03782907 0.0018135997 0.031084167 0.079316065
00000000: 8821 8abd db0d 74bd 3413 75bd b9f5 cabd
00000010: 8f12 a53c 9859 d6bc f399 b2bc 2bb8 243c
00000020: 68c6 413c ac6f b33d 2353 cb3d 366a 83bd
00000030: 60d7 69bd 2ee5 043d 3a83 a6bd 24f1 3e3d
00000040: 9f8f 9fbd a00e 4a3d 0177 c93c d761 c33d
00000050: 9381 bc3d 3b54 a53d 4a23 2cbc a1ba 113d
00000060: 7952 903a 76f1 33bc ef31 a6bd eea0 353c
00000070: 58ec acbd 4b86 b9bc be57 d43c ce55 a13d
00000080: 6c35 debb c103 68bd 81f3 cebc 7619 aabd
00000090: 642f 4fbd e1dc 96bd 8d0f 6dbd 534c a03d
000000a0: c3e6 953d f769 213d 5e9b 50bc 9640 f5bc
000000b0: a706 29bd d380 0f3d fd25 a13d 7ebe 873d
000000c0: 00da aa3d 35e2 a13d 5645 6abc 20b9 8ebd
000000d0: 952f 51bd aaf9 823d d5e2 87bd a373 b33d
000000e0: 17fe dfbc 6ee4 843d 0df8 0b3c 639d 06bd
000000f0: 914b df3c 3b48 58bd 1d2f 993d 8a69 b4ba
00000100: f7fd 1cbd 5c9d 47bd 91d5 48bc 3a90 723d
00000110: f27c 06bd 3521 a03d 7082 b83c 59a7 a8bc
00000120: 141c 85bb 3b56 08bd da07 3dbd 1344 5c3a
00000130: fec3 5a3d 2716 efbc 31e4 c63d fa89 3fbd
00000140: 2b00 713d 79d2 b3bd abcc 833d 540e c53d
00000150: a92b b7bd f681 9cbd e0b5 c4bd 55b9 8e3d
00000160: 3428 88bd aa48 b43d cc00 6f3d 982e a33c
00000170: 2db9 6a3d 4a4c 803d d3cb 3e3d 9e55 80bd
00000180: 4919 a0bd d52f bf3d 3f7f 3bbd 2296 12bc
00000190: fc81 fc3c 8ea3 92bb 621c 2ebd bfe4 d0bd
000001a0: 726b 97bd c235 9cbb 9d60 80bd 84a0 77bd
000001b0: 7b75 62bd a79f aabd 15ba 81bd 4d2f 26bd
000001c0: bd98 243d 1135 6fbd be2a c73c 3724 0abd
000001d0: 7c2d 6c3d 0b15 a5bd 4cd9 983c 1654 ae3d
000001e0: 8532 be3d 217e d93a 760f 923a 5329 b4bd
000001f0: 6cbb 013d 866a 0f3d 6a02 11bd 7d58 943d
00000200: 68ad aebd c81c ad3d dfb6 e3bc 8e0c 3fbb
00000210: e27b 35bc 1ab2 bebd 3f86 a1ba c7d7 b9bd
00000220: ca5c 7abd 7b8c c03d c151 c43d 205a 99bd
00000230: 12a0 0e3d cb9e 8fbc a942 9d3d f7ea 8e3d
00000240: 2dfc 46bd 9d5b d6bb 8fe4 16bd 241f 1bbd
00000250: a37e 8c3d bc68 c4bd bf71 69bd cb55 7c3d
00000260: 4c57 98bd f6d6 303d 4435 163c cdd4 abbd
00000270: 9c4c c43d 589a 803d 8e6e 5d3c 2509 d0bd
00000280: 3ca4 6c3d a95d 92bd 3363 bfbd 77bc 193c
00000290: 86af cdbd 329e 6dbd 048f 1abd b043 14bd
000002a0: eec2 873d e5f0 93bd ba7f afbd d6a2 653c
000002b0: fc24 f2bc d54f 423c 4db8 233c 8d87 8b3d
000002c0: a1cd 12bd 0cc8 303d 4a1a 38bd 601a a5bd
000002d0: 05e3 9f3d ed83 c1bd 0d32 96bb 7cc9 8dbd
000002e0: eb46 fcbc 0274 6c3d df13 78bc ea8b 903d
000002f0: 3e56 3fbd da34 943d 1772 bc3c da8e 9fbc
00000300: 9841 67bd d1ca 343d b165 cebd 0d89 b2bd
00000310: 9a50 9e3d 3ddb 84bd 07b1 cdbd 66cb cf3d
00000320: 5a47 20bd 5864 87bd cbcf 383d b968 58bc
00000330: b3cc 2dbd a3bc 49bc 5454 973d d7da f0bc
00000340: c317 c03d d972 36bd 3cfd 923d f78c c0bd
00000350: 4b77 883d b4f5 1b3d dd6c 893d 091b b1bd
00000360: bea4 3bbc 39bf 0e3d 634c f03c 1a7a d73b
00000370: 9a04 a6bd e9d3 113d 371f 8fbd cd58 4f3c
00000380: 0c0a cdbd 35a1 bd3d 69e8 8cbb e93b aebd
00000390: e832 2cbc f12f 6ebd d7dc ae3d 79c9 c6bd
000003a0: 08f0 b83d eed2 3dbd 44e3 e4bc c0f2 413c
000003b0: 891d 283c 9570 ebbc 66ed 363d aed8 9c3d
000003c0: 3492 abbd 1c2e 1abd 2563 70bc 5188 bbbd
000003d0: 5837 5b3c 36a0 80bc efe1 423d 491e 20bd
000003e0: af5f cfbd f674 b13d bc8d 543c 86cf a9bd
000003f0: a8f2 1a3d 4fb6 ed3a 39a4 fe3c 7670 a23d

conv3.bias f4 [64]
0.014123499 -0.08254331 -0.0309008 -0.087132014 0.018244363 -0.08758221 -0.034170907 0.089415245
0.07090465 -0.025951577 -0.028650172 -0.08669816 -0.09489402 -0.06607868 0.05085192 -0.0729111
-0.057241958 0.005696129 0.023410063 -0.09253937 0.021640824 -0.08817752 0.06823391 0.09442513
-0.04215955 0.023271864 -0.0751782 -0.024481323 -0.040139165 -0.029707901 0.06942016 -0.101418346
-0.0843411 0.07040564 0.018938001 0.07872908 0.013173357 -0.008120038 -0.03793267 -0.022615435
0.015717082 -0.01469007 -0.098445 -0.042368133 -0.092624046 -0.014370219 -0.022012409 -0.029339805
0.09715378 -0.024912888 -0.10058817 0.037709117 -0.057055123 0.059913296 -0.07929544 0.05938554
-0.048276037 -0.08675413 -0.013488797 -0.09107442 0.092098184 -0.055577166 -0.017533768 0.021039346
00000000: 4066 673c 780c a9bd ad23 fdbc 4572 b2bd
00000010: 3475 953c 4d5e b3bd cbf6 0bbd 571f b73d
00000020: 7536 913d 6798 d4bc c4b3 eabc ce8e b1bd
00000030: cc57 c2bd 4254 87bd 1a4a 503d 6a52 95bd
00000040: 8b76 6abd 98a6 ba3b 76c6 bf3c 4885 bdbd
00000050: 1948 b13c 6a96 b4bd 38be 8b3d f661 c13d
00000060: 7eaf 2cbd a3a4 be3c 07f7 99bd 0e8d c8bc
00000070: f768 24bd fc5d f3bc 282c 8e3d 6cb4 cfbd
00000080: 07bb acbd d530 903d de23 9b3c b63c a13d
00000090: 10d5 573c e809 05bc 4a5f 1bbd 0144 b9bc
000000a0: 1cc1 803c 9fae 70bc 889d c9bd 358a 2dbd
000000b0: adb1 bdbd 1171 6bbc 5e53 b4bc 085a f0bc
000000c0: 90f8 c63d 1d16 ccbc 2c01 cebd e074 1a3d
000000d0: a2b2 69bd a567 753d a665 a2bd 413e 733d
000000e0: 18bd 45bd 26ac b1bd 1d00 5dbc 3a85 babd
000000f0: f99d bc3d e2a4 63bd faa2 8fbc b55a ac3c

fc1.weight f4 [128, 1024]
-0.0094984025 -0.01854245 0.0022026114 0.017753404 0.014315698 -0.008343589 0.021521997 0.02104405
-0.006471239 -0.021452513 0.02549658 -0.00040500239 -0.0020758398 0.029316515 0.029603723 0.009273656
0.0198372 0.0047778487 -0.0048555434 0.011691812 -0.01579725 -0.002184622 -0.0028839186 0.012151729
-0.020596705 0.009302124 -0.02662465 -0.011641767 -0.028635427 -0.0001664348 0.017970823 -0.00946318
0.031190634 0.017643385 -0.023330785 0.017996848 -0.0031650178 -0.0018231347 -0.020409271 0.011997417
-0.027553394 -0.007530749 -0.024052996 0.009469729 0.005034048 0.024330076 -0.03092803 -0.006181646
-0.023687847 0.01567858 -0.02115674 -0.0055905916 -0.0033767484 0.014939204 -0.026566155 0.025048357
-0.010811113 0.0023627952 0.0070616305 -0.02546037 0.013642635 0.03025933 -0.02305961 -0.02927607
-0.014221493 0.02404634 -0.02255391 0.022771679 0.0042136423 0.01581091 -0.028103672 -0.016160086
0.025716752 0.020135153 0.006405901 0.0144014135 -0.015030127 -0.017843205 0.0002355203 -0.021569416
-0.01691246 0.030951537 0.020301733 0.014885683 0.006228078 0.012329131 0.029595148 0.005105991
0.030229785 -0.019534245 0.01443943 -0.021294639 0.016266093 -0.023937512 -0.004441615 0.0042451657
0.02507586 -0.016202252 0.011778869 -0.020568375 -0.022916943 -0.027976595 -0.020946406 -0.012101632
-0.015445776 -0.021259923 0.022987809 0.016334005 0.016842704 0.020324457 -0.026147716 -0.018476773
0.021175917 -0.028515726 -0.010605447 0.012632854 -0.003699623 -1.501292e-05 -0.027569596 0.030661393
-0.024635058 -0.023871109 -0.021182775 -0.017880287 0.010327276 -0.021721896 -0.025269955 -0.028986353
-0.0072773546 0.02079473 0.0147123635 -0.0082619265 0.0071212016 -0.01354634 -0.025938388 -0.022433203
0.0010728091 0.023065832 -0.022106856 0.025785055 0.02859708 0.011571139 0.009079162 -0.025124732
0.028992306 -0.021752514 -0.01361322 0.014533475 -0.007220894 0.012312323 -0.012815338 -0.020250566
0.019785993 -0.0026702285 -0.009341039 -0.031106185 -0.0011312887 -0.014218472 0.014623437 0.012989651
0.01543922 -0.010333989 -0.016123436 0.006486822 0.015511613 0.009541944 -0.028483473 -0.011483826
-0.02056754 -0.022999562 0.015211292 -0.020533558 0.013603155 -0.02782679 -0.00937511 0.016025342
0.0027306788 0.008741122 0.016032454 0.018616647 -0.025596589 0.02394227 0.016029771 0.025416087
-0.023191366 -0.015053302 0.024151735 -0.0062789507 -0.027375687 0.0093541 0.011869296 -0.0052798726
0.00064512715 -0.015392855 -0.021211136 0.010883376 0.013829302 -0.013872735 0.023644265 0.025406834
-0.0125832595 -0.022450346 -0.003269732 -0.022650544 0.022210501 -0.026589457 0.023349363 0.010399751
0.013369232 0.004043229 0.010089014 0.02189887 0.022811454 0.0160353 0.02153479 -0.02922646
-0.018329993 -0.014097132 0.019140359 -0.023461744 0.008922856 -0.0077806525 -0.009830907 -0.0043882653
0.020521272 -0.011535555 0.013533145 -0.028522559 -0.0019529425 0.0077816173 0.010821085 0.031105503
-0.013912864 0.010512691 0.010570325 0.029455952 0.030058607 0.010887597 -0.006045066 -0.019041602
-0.029600512 0.019261796 -0.029822074 -0.014880765 0.015786678 0.028215121 0.0060894415 -0.0021551773
0.0040133 -0.022825152 0.018522546 0.018043935 -0.009521641 -0.0031597316 0.002458766 -0.026167076
00000000: 309f 1bbc 56e6 97bc b059 103b 966f 913c
00000010: 648c 6a3c 8cb3 08bc e64e b03c 9264 ac3c
00000020: b00c d4bb 2ebd afbc 34de d03c 8056 d4b9
00000030: d00a 08bb 3029 f03c 8283 f23c 88f0 173c
00000040: a081 a23c 808f 9c3b 401b 9fbb 048f 3f3c
00000050: 3c69 81bc e02b 0fbb 2000 3dbb 0c18 473c
00000060: 6cba a8bc f067 183c f01b dabc 1cbd 3ebc
00000070: d894 eabc 0085 2eb9 8c37 933c 740b 1bbc
00000080: 8083 ff3c dc88 903c 3420 bfbc 206e 933c
00000090: 306c 4fbb 40f6 eeba 5831 a7bc d090 443c
000000a0: a8b7 e1bc 80c4 f6bb ca0a c5bc ec26 1b3c
000000b0: a8f4 a43b de4f c73c c85c fdbc 688f cabb
000000c0: 040d c2bc 5e70 803c e650 adbc 4831 b7bb
000000d0: 704c 5dbb 90c3 743c 44a1 d9bc 3632 cd3c
000000e0: 1821 31bc 20d9 1a3b 4065 e73b 4492 d0bc
000000f0: 5c85 5f3c 6ae2 f73c 82e7 bcbc 5ed4 efbc
00000100: 4401 69bc d4fc c43c fac2 b8bc ac8b ba3c
00000110: 9812 8a3b e285 813c ac39 e6bc 2862 84bc
00000120: f0ab d23c 7af2 a43c 98e8 d13b e8f3 6b3c
00000130: ec40 76bc ea2b 92bc 00f6 7639 58b2 b0bc
00000140: 008c 8abc 148e fd3c d24f a63c 14e3 733c
00000150: e814 cc3b 2000 4a3c 8671 f23c 2850 a73b
00000160: 74a4 f73c 4806 a0bc 5c93 6c3c 1872 aebc
00000170: 7840 853c 9a18 c4bc f88a 91bb 081b 8b3b
00000180: e46b cd3c 96ba 84bc 28fc 403c 027f a8bc
00000190: 50bc bbbc 2c2f e5bc cc97 abbc ec45 46bc
000001a0: 4810 7dbc 4a29 aebc ee50 bc3c e4ce 853c
000001b0: b6f9 893c 7a7f a63c bc33 d6bc 9a5c 97bc
000001c0: 1e79 ad3c d099 e9bc 78c2 2dbc 08fa 4e3c
000001d0: 6075 72bb 00e0 7bb7 a2d9 e1bc 9a2d fb3c
000001e0: 76cf c9bc 588d c3bc 8087 adbc ae79 92bc
000001f0: bc33 293c 1ef2 b1bc f002 cfbc ca74 edbc
00000200: e076 eebb b659 aa3c 200c 713c 085d 07bc
00000210: f858 e93b 78f1 5dbc be7c d4bc d6c5 b7bc
00000220: 809d 8c3a 8ef4 bc3c 7019 b5bc 2e3b d33c
00000230: 6c44 ea3c e094 3d3c c4c0 143c 62d2 cdbc
00000240: 4681 ed3c 5432 b2bc fc09 5fbc d01d 6e3c
00000250: 409d ecbb a0b9 493c 6cf7 51bc 84e4 a5bc
00000260: 3c16 a23c 00ff 2ebb 280b 19bc 66d2 febc
00000270: c047 94ba 98f4 68bc 2497 6f3c 8cd2 543c
00000280: c8f4 7c3c e44f 29bc 4c15 84bc 688f d43b
00000290: 6c24 7e3c d055 1c3c 2c56 e9bc a826 3cbc
000002a0: 427d a8bc 9469 bcbc c838 793c fe35 a8bc
000002b0: c4df 5e3c 02f5 e3bc 109a 19bc 9447 833c
000002c0: 30f5 323b ec36 0f3c 7e56 833c f081 983c
000002d0: f0af d1bc 9422 c43c de50 833c 6635 d03c
000002e0: d2fb bdbc 20a2 76bc dcd9 c53c a8bf cdbb
000002f0: fa42 e0bc f041 193c 7077 423c c802 adbb
00000300: c01d 293a 5032 7cbc fac2 adbc 3050 323c
00000310: 4c94 623c 784a 63bc 9eb1 c13c fe21 d03c
00000320: 042a 4ebc cae9 b7bc 0049 56bb a28d b9bc
00000330: ccf2 b53c 22d2 d9bc 2a47 bf3c b863 2a3c
00000340: a00a 5b3c 107d 843b 644c 253c 4265 b33c
00000350: 16df ba3c 765c 833c ba69 b03c 546c efbc
00000360: c828 96bc a8f7 66bc 3ecc 9c3c d832 c0bc
00000370: 2c31 123c d8f4 febb d011 21bc 70cb 8fbb
00000380: 3a1c a83c a0ff 3cbc 20ba 5d3c 24a8 e9bc
00000390: e0f9 ffba f0fc fe3b ec4a 313c f8d0 fe3c
000003a0: c8f2 63bc 6c3d 2c3c 282f 2d3c 9c4d f13c
000003b0: 783d f63c e461 323c b015 c6bb 22fd 9bbc
000003c0: c67c f2bc eaca 9d3c 6c4d f4bc 74ce 73bc
000003d0: 1053 813c 6623 e73c f089 c73b e03d 0dbb
000003e0: 0082 833b d0fb babc 98bc 973c e0d0 933c
000003f0: a800 1cbc 8013 4fbb 4023 213b 565c d6bc

fc1.bias f4 [128]
0.028304894 0.017921334 -0.002528999 -0.025047071 0.017891135 -0.006536003 0.0065655 -0.025633112
0.019558176 -0.006760873 -0.012022182 -0.014527007 -0.022782793 0.029242601 -0.017616112 -0.009076607
-0.024373027 -0.004849788 -0.0165065 -0.01522211 0.02977399 -0.014821928 -0.019064492 0.020956127
-0.0014536269 -0.003679607 -0.029014517 -0.029751036 -0.015224945 -0.016716536 0.024752565 -0.009517919
-0.011704251 0.0015669502 -0.018980555 0.027743064 0.012115099 0.027988937 -0.007548915 -0.006000325
-0.0060622804 0.015801204 0.025320517 0.0046247765 -0.016061816 0.016159121 0.02736279 0.010779967
0.0036365886 -0.015889615 -0.012969382 -0.008708434 0.005322153 -0.005020257 -0.0010540652 0.014836095
0.012509229 0.029731471 0.0009752152 -0.011914115 0.022598794 0.02702111 0.00022022054 -0.00026578235
0.030383073 -0.00521117 0.010018526 0.0028398698 0.002813003 -0.0046296716 -0.004164219 -0.025064304
0.014923118 -0.02694815 0.0227577 0.022145187 0.015833013 -0.028701957 -0.0050665364 0.017425014
-0.015174728 -0.019754274 -0.004910324 -0.018467143 -0.022756353 0.0145907 -0.011056323 -0.01139146
-0.014815886 0.013952419 0.015351113 -0.014113034 -0.013074484 0.024170209 0.002292443 -0.02920923
0.023512335 0.0062650405 -0.026578523 0.014925907 0.026469596 0.018502757 -0.013751511 -0.030725759
0.019415136 0.0045789285 0.012454434 0.014952283 0.010158904 -0.011114351 -0.025639798 0.031078225
0.00056114676 -0.014279131 -0.025358383 -0.020790987 -0.02000691 -0.026222933 -0.00031871197 0.020918597
0.0044742376 0.027673375 -0.028968092 0.02454373 0.024427932 0.01918133 -0.02215406 -0.0003244927
00000000: aadf e73c c3cf 923c 90bd 25bb 842f cdbc
00000010: 6e90 923c f82b d6bb 6823 d73b 88fc d1bc
00000020: 7838 a03c 508a ddbb b0f8 44bc af02 6ebc
00000030: fba2 babc 2e8e ef3c aa4f 90bc 0db6 14bc
00000040: f1a9 c7bc f8ea 9ebb a438 87bc 2866 79bc
00000050: 95e8 f33c acd7 72bc 232d 9cbc 2fac ab3c
00000060: a087 beba 9025 71bb daaf edbc 72b8 f3bc
00000070: 0c72 79bc 1ef1 88bc e4c5 ca3c 0cf1 1bbc
00000080: 30c3 3fbc 2062 cd3a 1c7d 9bbc 6c45 e33c
00000090: 687e 463c 0e49 e53c e45c f7bb 609e c4bb
000000a0: 18a6 c6bb 8771 813c f96c cf3c 708b 973b
000000b0: 1294 83bc 2260 843c ee27 e03c 759e 303c
000000c0: d553 6e3b f02a 82bc 887d 54bc d2ad 0ebc
000000d0: 7565 ae3b f880 a4bb 8f28 8aba 1813 733c
000000e0: 82f3 4c3c 6a8f f33c 96a5 7f3a 6c33 43bc
000000f0: 1b21 b93c 605b dd3c 00eb 6639 b458 8bb9
00000100: ece5 f83c 76c2 aabb be24 243c 1c1d 3a3b
00000110: 5c5a 383b 80b4 97bb 0074 88bb a853 cdbc
00000120: 1880 743c 5ec2 dcbc 5b6e ba3c d369 b53c
00000130: 3cb4 813c 5e20 ebbc 3005 a6bb e7be 8e3c
00000140: 6c9f 78bc b7d3 a1bc c8e6 a0bb 6848 97bc
00000150: 886b babc d50d 6f3c 9425 35bc 3fa3 3abc
00000160: 54be 72bc b098 643c 3c83 7b3c 5b3a 67bc
00000170: 5c36 56bc 9a00 c63c d03c 163b 3248 efbc
00000180: f19c c03c f84a cd3b 34bb d9bc cb8b 743c
00000190: c4d6 d83c 1893 973c 054e 61bc 96b4 fbbc
000001a0: 7e0c 9f3c d60a 963b af0d 4c3c 6cfa 743c
000001b0: 8871 263c f818 36bc 8e0a d2bc c397 fe3c
000001c0: ec19 133a 04f3 69bc 62bc cfbc dc51 aabc
000001d0: 88e5 a3bc 7ad1 d6bc cc18 a7b9 7a5d ab3c
000001e0: a09c 923b 46b3 e23c 7e4e edbc ef0f c93c
000001f0: 161d c83c 2a22 9d3c 6e7c b5bc ac20 aab9

fc2.weight f4 [1, 128]
0.08097167 0.04689214 -0.023132298 0.029076794 -0.07758948 -0.07183843 0.06202954 0.028741179
0.064020924 0.0377755 0.049433425 0.026658159 0.039205052 -0.078913115 -0.0841242 -0.036479846
0.04463304 -0.028174905 0.085460186 0.04854414 0.044088658 0.0045684446 0.06621078 -0.036348768
0.05851313 0.008029259 0.087526545 0.015541292 0.04516038 0.009259484 0.07055845 -0.06810737
-0.039656434 -0.0057444363 -0.0051209684 -0.0037230628 -0.0066144527 0.019977693 0.006805348 0.08142063
-0.021672172 0.08227849 -0.029036488 -0.02372504 0.007824383 0.047784198 -0.010055319 0.022824626
0.053946923 0.023184173 -0.007192212 0.050129957 -0.04905205 -0.037284683 0.006969309 0.045767177
-0.0835454 0.024157256 0.049221396 -0.0067496174 -0.048591815 -0.01153166 0.024012366 -0.07468993
0.0031458624 0.017104752 0.06606172 -0.033141762 -0.027260866 -0.022278203 0.061819438 0.034469716
0.06170502 0.0043344344 0.060589213 -0.06444773 -0.07968398 -0.07455084 -0.025973057 0.056684226
0.074729025 0.033308364 -0.06550424 -0.067641415 -0.045372903 0.023679968 -0.08239733 0.06563045
0.036735382 0.03927218 0.007494363 0.049144946 0.077706955 0.045075644 0.008924468 0.0047935825
-0.066465504 -0.029475925 -0.016757809 -0.0242636 0.057652093 -0.01558018 -0.08649369 -0.0793113
0.0332632 -0.027097903 -0.060486868 0.020361943 -0.0579838 -0.038226265 -0.014783091 0.019561598
-0.044733375 0.04073395 -0.07322737 -0.08114082 0.038944278 -0.043633558 0.08833878 -0.032420125
0.0028183807 0.08237512 0.07246375 -0.06418367 0.018862 -0.007690746 -0.030353062 -0.027089113
00000000: 7ad4 a53d f911 403d f27f bdbc 7532 ee3c
00000010: 3ce7 9ebd 0720 93bd b012 7e3d 9f72 eb3c
00000020: 671d 833d 7cba 1a3d b47a 4a3d 3662 da3c
00000030: 7a95 203d 339d a1bd 4f49 acbd e46b 15bd
00000040: 22d1 363d 0fcf e6bc c005 af3d 38d6 463d
00000050: 4f96 343d e4b2 953b 8499 873d 72e2 14bd
00000060: 77ab 6f3d 278d 033c 1e41 b33d e7a0 7e3c
00000070: 17fa 383d 17b5 173c f380 903d e07b 8bbd
00000080: c96e 22bd d33b bcbb cccd a7bb a1fe 73bb
00000090: 0dbe d8bb 42a8 a33c 66ff de3b dcbf a63d
000000a0: d789 b1bc a081 a83d eedd edbc 045b c2bc
000000b0: d731 003c 5db9 433d 11bf 24bc b6fa ba3c
000000c0: 73f7 5c3d bcec bd3c a6ac ebbb 1255 4d3d
000000d0: cdea 48bd d3b7 18bd cd5e e43b 5d76 3b3d
000000e0: da19 abbd 70e5 c53c 609c 493d e52b ddbb
000000f0: 3608 47bd 4aef 3cbc 95b5 c43c 09f7 98bd
00000100: d02a 4e3b 441f 8c3c 5e4b 873d a8bf 07bd
00000110: 2e52 dfbc c780 b6bc 6136 7d3d 1e30 0d3d
00000120: 67be 7c3d df07 8e3b 652c 783d 2cfd 83bd
00000130: 5b31 a3bd 1cae 98bd 73c5 d4bc b82d 683d
00000140: 880b 993d 5a6e 083d 1627 86bd 9587 8abd
00000150: f0d8 39bd 7efc c13c eebf a8bd 4269 863d
00000160: d777 163d dedb 203d 4693 f53b 364c 493d
00000170: d324 9f3d 3da1 383d ef37 123c 7c13 9d3b
00000180: 111f 88bd 7f77 f1bc ac47 89bc 75c4 c6bc
00000190: 9a24 6c3d 0344 7fbc 9b23 b1bd f66d a2bd
000001a0: fe3e 083d 6cfc ddbc 14c1 77bd 17ce a63c
000001b0: 6c80 6dbd 2593 1cbd c734 72bc a53f a03c
000001c0: 583a 37bd a4d8 263d 3bf8 95bd 292d a6bd
000001d0: 0984 1f3d 1ab9 32bd f6ea b43d f7ca 04bd
000001e0: 95b4 383b 49b4 a83d e067 943d ba72 83bd
000001f0: 7b84 9a3c a702 fcbb fca6 f8bc fde9 ddbc
