tutorials/distributed-ml/tutorial-1-mnist/checkpoint.pth.tar (torch, 180274 bytes, 16 tensors)

module.conv1.weight f4 [10, 1, 5, 5]
0.044120643 0.092103414 -0.12515035 -0.14526688 0.2173558 0.07192305 -0.25493652 -0.2809999
-0.10798554 0.07534417 -0.119265586 -0.26169074 -0.009863859 -0.23149405 0.40558425 -0.29530272
-0.28062272 -0.3009115 -0.060650527 0.51212406 -0.28383532 -0.07986019 -0.09362544 0.45933577
0.47685573 0.19203287 0.14401457 0.29772317 0.1640243 -0.18962793 0.2844405 0.33774623
0.08643447 -0.19252314 -0.17279793 0.18152891 0.1652266 0.05925603 -0.21052414 -0.26977828
0.2427828 0.24005893 -0.2146101 -0.23293127 -0.19262932 0.19496888 -0.00092163746 -0.2843215
-0.066494256 -0.1799241 0.29669926 0.5214701 0.39037362 0.2709842 0.4116646 0.11249995
0.49213985 0.25516388 0.42456695 0.3661992 -0.21938813 -0.16055597 0.12316535 0.026274184
0.20244922 -0.34307185 -0.26923063 -0.44167116 -0.24692032 0.17823894 -0.4083445 -0.43361503
-0.35317385 -0.42695776 -0.19955845 -0.13456634 0.06324019 -0.14438003 -0.16830069 -0.027494643
-0.1542618 -0.095576435 -0.112651184 -0.1568106 0.09597723 -0.21392387 -0.18419655 0.10177202
0.36740267 0.113002345 0.19826475 0.3202145 0.2285451 0.13749121 -0.15344205 0.18114138
0.12793289 -0.10758604 -0.17183897 -0.018847223 0.2268204 0.13602604 0.102463506 0.1846315
0.0490541 -0.044896875 -0.12028621 -0.0462222 -0.04696706 0.24698693 -0.045302298 0.025846818
-0.073340245 -0.045520183 0.22937246 -0.2098068 0.06042273 -0.06357447 0.35140887 0.38053805
0.10952143 -0.016591476 0.29611424 0.08746658 0.060512148 0.40230685 0.204324 0.058173474
-0.24622576 -0.15056089 0.4655908 0.5233148 -0.080514655 -0.17563263 -0.25064597 0.3368741
0.25103024 0.080665514 -0.095742375 0.10445831 0.08156327 0.3805155 0.1116727 0.08351254
0.12506223 -0.050759733 0.17122321 0.30444145 -0.11174071 -0.15908583 -0.14296693 0.19982746
0.101207934 0.059334785 -0.21013452 0.047967564 0.08617688 0.19284089 -0.14223172 -0.06130425
-0.0518421 0.25738758 0.17532192 -0.21255171 -0.20663638 0.18835679 0.013735812 0.027090197
-0.22524807 -0.01967085 0.105163634 -0.024620624 -0.03137362 -0.13570967 -0.2725481 0.31846252
0.39864033 0.014613877 0.43512642 0.5051931 0.25805855 0.17299785 0.3778758 0.12908478
0.18749362 0.084717 0.1870831 0.23398651 -0.026419314 0.006923397 0.1554596 0.14219585
0.19848084 -0.1576781 -0.08404748 0.13416848 0.26071855 -0.005107616 0.034237023 -0.018056793
0.036950998 -0.048961762 -0.10345227 -0.29671955 0.08832944 -0.15578805 -0.011718736 0.049063772
-0.31694832 -0.30838457 0.22429615 0.23975971 -0.14794618 0.06340377 -0.3274738 0.14388132
0.12260945 0.24105531 0.19668573 0.21193723 -0.016476044 0.060978625 0.3154869 0.23203975
0.41874307 0.11477533 0.08906335 -0.074749626 -0.011486249 -0.13797046 0.23137932 -0.16680075
0.12837449 -0.18864806 0.06313351 0.24959116 0.0021080503 0.061855856 -0.23737569 -0.07619486
-0.009010006 0.03911464 0.0674939 -0.20719644 0.050392 0.24817607 0.096021816 0.024557075
-0.15554841 0.08165524
00000000: d9b7 343d b7a0 bc3d 6a27 00be d7c0 14be
00000010: 8592 5e3e 644c 933d 0a87 82be 38df 8fbe
00000020: 8627 ddbd 0b4e 9a3d 8441 f4bd 54fc 85be
00000030: 069c 21bc c70c 6dbe bda8 cf3e eb31 97be
00000040: c8ad 8fbe 1211 9abe b06c 78bd 901a 033f
00000050: dd52 91be bd8d a3bd b2be bfbd 0f2e eb3e
00000060: 6f26 f43e 44a4 443e 8e78 133e 2c6f 983e
00000070: fcf5 273e d32d 42be 2fa2 913e 13ed ac3e
00000080: 8e04 b13d c924 45be f1f1 30be b7e2 393e
00000090: 2931 293e 73b6 723d a493 57be 6120 8abe
000000a0: 0e9c 783e 02d2 753e c0c2 5bbe 8985 6ebe
000000b0: 9f40 45be eca5 473e 0b9a 71ba 9692 91be
000000c0: 242e 88bd 063e 38be f7e8 973e 117f 053f
000000d0: 0ddf c73e 71be 8a3e b4c5 d23e 6066 e63d
000000e0: c1f9 fb3e d7a4 823e d760 d93e 767e bb3e
000000f0: 48a7 60be c968 24be 1d3e fc3d f53c d73c
00000100: d94e 4f3e 1da7 afbe 99d8 89be b922 e2be
00000110: aed8 7cbe 4584 363e 8812 d1be ca02 debe
00000120: 34d3 b4be 359a dabe 0d59 4cbe c2cb 09be
00000130: 1384 813d 5cd8 13be 0457 2cbe 723c e1bc
00000140: cef6 1dbe 94bd c3bd aab5 e6bd f592 20be
00000150: b68f c43d dc0e 5bbe 059e 3cbe d96d d03d
00000160: 341c bc3e c66d e73d ea05 4b3e 28f3 a33e
00000170: ba07 6a3e 7fca 0c3e ea1f 1dbe 207d 393e
00000180: d700 033e 1256 dcbd 8ef6 2fbe 7e65 9abc
00000190: 9b43 683e 694a 0b3e 63d8 d13d 0a10 3d3e
000001a0: f4ec 483d c9e5 37bd 9e58 f6bd 7d53 3dbd
000001b0: 8860 40bd 24ea 7c3e e78e 39bd b5bc d33c
000001c0: 6933 96bd 5f73 3abd 9de0 6a3e 98d7 56be
000001d0: d37d 773d 5533 82bd ddeb b33e e2d5 c23e
000001e0: c64c e03d d9ea 87bc 499c 973e ae21 b33d
000001f0: 96db 773d 2afb cd3e 503a 513e 4f47 6e3d
00000200: 9b22 7cbe a22c 1abe eb61 ee3e f5f7 053f
00000210: dee4 a4bd 0ad9 33be ab54 80be c37a ac3e
00000220: 0987 803e f633 a53d 9414 c4bd 3dee d53d
00000230: a50a a73d edd2 c23e a8b4 e43d 9f08 ab3d
00000240: 5010 003e 70e9 4fbd 2355 2f3e c0df 9b3e
00000250: 50d8 e4bd 65e7 22be ec65 12be 929f 4c3e
00000260: 1b46 cf3d 0809 733d 812d 57be a379 443d
00000270: 817d b03d 1578 453e 31a5 11be 2a1a 7bbd
00000280: 6258 54bd 4ec8 833e 9787 333e 28a7 59be
00000290: 7d98 53be 9ae0 403e 2c0c 613c 43ec dd3c
000002a0: 6ea7 66be c324 a1bc 0860 d73d 31b1 c9bc
000002b0: a081 00bd 7af7 0abe 6d8b 8bbe 850d a33e
000002c0: 961a cc3e 0b6f 6f3c e4c8 de3e 5654 013f
000002d0: 4020 843e 5926 313e f078 c13e cd2e 043e
000002e0: 54fe 3f3e 1b80 ad3d b692 3f3e 299a 6f3e
000002f0: 516d d8bc aadd e23b cd30 1f3e ca9b 113e
00000300: 903e 4b3e 5e76 21be 1621 acbd 7663 093e
00000310: e77c 853e ca5d a7bb 1f3c 0c3d d7eb 93bc
00000320: ee59 173d 218c 48bd c9de d3bd a0eb 97be
00000330: 11e6 b43d e786 1fbe f1ff 3fbc 18f7 483d
00000340: 0d47 a2be 95e4 9dbe e4ad 653e 9283 753e
00000350: 347f 17be d6d9 813d a5aa a7be a055 133e
00000360: aa1a fb3d 34d7 763e fc67 493e 1306 593e
00000370: c5f8 86bc b9c4 793d 8087 a13e d49b 6d3e
00000380: 7e65 d63e 540f eb3d d866 b63d 5516 99bd
00000390: d230 3cbc 2148 0dbe b3ee 6c3e d1cd 2abe
000003a0: 9a74 033e f52c 41be 244c 813d d394 7f3e
000003b0: 3727 0a3b 915c 7d3d 9d12 73be 0d0c 9cbd
000003c0: b49e 13bc ac36 203d 3e3a 8a3d 4e2b 54be
000003d0: d767 4e3d de21 7e3e 16a7 c43d eb2b c93c
000003e0: 1548 1fbe dd3a a73d

module.conv1.bias f4 [10]
-0.1599387 0.16199827 0.3114082 0.07909433 0.110926524 0.20564663 -0.15775678 0.06425293
0.32986492 -0.028115237
00000000: f8c6 23be e0e2 253e e570 9f3e 35fc a13d
00000010: 722d e33d 0895 523e fe8a 21be 0a97 833d
00000020: 0ee4 a83e ed51 e6bc

module.conv2.weight f4 [20, 10, 5, 5]
-0.043927483 -0.078536466 0.048375435 0.04450024 0.07639475 -0.019836407 0.05680786 0.054975554
0.010799399 0.017868966 -0.13559827 -0.07316756 -0.075436465 -0.09531682 0.019782113 -0.03642618
-0.04048905 0.0551432 0.045124445 -0.0074956203 0.08901734 0.060868014 0.071198545 -0.04373243
-0.10408046 0.019074034 0.012495051 0.048732962 0.0047403243 -0.008557993 -0.08712866 -0.06593544
0.0025474092 -0.021386437 0.013897308 -0.09362122 -0.039656106 -0.044879984 -0.0346035 0.0050122137
-0.078794 -0.018038867 -0.00853607 -0.08713991 -0.027217576 -0.066454254 -0.008477096 0.031837337
-0.017259153 0.0013021888 0.08995824 -0.0043792557 -0.017727789 -0.024608165 -0.04725648 -0.00783578
0.082475014 0.08848208 0.07858846 0.106874615 0.076471575 0.15122561 0.10262864 0.13435383
0.07593993 0.11888403 0.07258417 0.063833326 -0.061676532 -0.066239715 -0.12913242 -0.08032217
-0.129421 -0.15129326 -0.17628832 0.03681263 -0.013119912 0.0027623302 -0.007903515 0.0050346777
-0.025141146 0.020790609 0.07103681 0.122420095 0.08627872 -0.0052598147 0.032765966 0.023281356
-0.0030412748 -0.012216892 0.025605518 0.066558085 0.075035565 0.035007924 0.026838364 0.031187905
0.015200584 0.051685657 0.07617598 0.07220736 -0.057909787 0.060231514 0.024148598 0.018598985
0.056444224 -0.053563125 -0.0080406815 0.016762897 0.013173221 -0.04053686 -0.063929334 0.022703039
-0.069404885 -0.015848989 -0.05234934 -0.061400246 -0.059160396 -0.043037582 -0.032688346 0.0052772355
-0.0065865703 0.004475469 0.018662788 -0.020162895 -0.00055933365 0.0009171513 0.027878283 0.016339073
0.038401365 -0.010157384 0.0595638 -0.02817378 0.0066978326 0.013614926 -0.04683696 -0.030666731
-0.034073234 0.06398073 0.06091138 0.027345415 -0.05431013 -0.14005375 -0.08557449 -0.11583496
-0.15086849 -0.041071497 -0.11912887 -0.12932186 -0.12504235 -0.07230628 0.040403027 -0.07142446
0.043044697 0.043965504 -0.023696108 0.0052719708 -0.0052576843 -0.0018568794 0.018993568 0.036071423
0.018832993 -0.06292976 -0.04701456 -0.03368983 -0.009714592 0.021052567 -0.05759454 -0.011314542
-0.06810761 -0.03980454 -0.05768096 0.017725771 -0.04267262 -0.013614573 -0.020806557 -0.046273496
-0.075456895 0.012977392 -0.032867316 -0.04150644 0.009589728 -0.022437373 -0.054252986 -0.011335704
-0.021514462 -0.07110769 -0.017997306 0.0146291945 0.07455529 0.011330021 -0.0041083107 -0.036679093
-0.0803148 -0.0036550104 3.6714202e-05 -0.08399687 -0.13654149 -0.063450344 -0.0681622 -0.067034744
0.0003103502 0.02103115 0.051420525 0.043936998 0.040128734 0.100842714 0.04554814 0.07407258
-0.00052356924 0.079660244 0.04883892 0.016029615 -0.0504148 -0.021545934 -0.072198614 -0.023662092
0.02586381 -0.067992546 -0.020783488 -0.04078616 0.10424088 0.15179884 0.112620205 0.089493886
0.046201404 -0.045434922 0.031922188 -0.020583607 -0.04727211 -0.05391119 -0.0604545 0.023531752
0.017321132 0.0012166405 -0.04393003 0.04424279 0.026207944 -0.05584712 -0.010664701 0.008488145
0.022077212 -0.037794363 -0.03238601 -0.02426237 -0.05568923 0.035601564 -0.058764726 -0.049791217
-0.083148666 -0.05192328 -0.03065858 -0.050889965 -0.109119914 0.044821408 0.08073324 -0.031732496
00000000: 4eed 33bd bad7 a0bd 5225 463d e245 363d
00000010: da74 9c3d f67f a2bc 5caf 683d 0c2e 613d
00000020: f6ef 303c f061 923c 46da 0abe e0d8 95bd
00000030: 6f7e 9abd 7735 c3bd 190e a23c 9e33 15bd
00000040: d9d7 25bd d6dd 613d 69d4 383d d29d f5bb
00000050: b94e b63d bd50 793d 8bd0 913d c720 33bd
00000060: 2328 d5bd 2641 9c3c 0bb8 4c3c 379c 473d
00000070: b954 9b3b d336 0cbc 8370 b2bd 2909 87bd
00000080: 6ff2 263b 9c32 afbc 89b1 633c 7bbc bfbd
00000090: 716e 22bd 13d4 37bd 66bc 0dbd 7f3d a43b
000000a0: c05e a1bd 3fc6 93bc dfda 0bbc 6976 b2bd
000000b0: 65f7 debc 2b19 88bd 85e3 0abc de67 023d
000000c0: 1163 8dbc 35ae aa3a 073c b83d dc7f 8fbb
000000d0: de39 91bc 1097 c9bc 0390 41bd a561 00bc
000000e0: a9e8 a83d 1836 b53d fdf2 a03d 14e1 da3d
000000f0: 219d 9c3d e3da 1a3e f72e d23d 0d94 093e
00000100: 6586 9b3d 7879 f33d 02a7 943d 0cbb 823d
00000110: 88a0 7cbd b0a8 87bd 4a3b 04be f37f a4bd
00000120: f086 04be 9fec 1abe ed84 34be d7c8 163d
00000130: e6f4 56bc 3608 353b bf7d 01bc f0f9 a43b
00000140: cef4 cdbc 1151 aa3c bf7b 913d 63b7 fa3d
00000150: e6b2 b03d 865a acbb 9b35 063d 8bb8 be3c
00000160: 2050 47bb 5c29 48bc aac2 d13c 9b4f 883d
00000170: 3fac 993d 7864 0f3d 21dc db3c c77d ff3c
00000180: df0b 793c 57b4 533d 2702 9c3d 74e1 933d
00000190: d032 6dbd 52b5 763d 48d3 c53c e65c 983c
000001a0: 0f32 673d 0265 5bbd 10bd 03bc 5852 893c
000001b0: 7ed4 573c fa09 26bd 62ed 82bd b9fb b93c
000001c0: 2624 8ebd bdd5 81bc 436c 56bd d37e 7bbd
000001d0: 2c52 72bd 2d48 30bd 37e4 05bd a9ec ac3b
000001e0: 28d4 d7bb f4a6 923b b4e2 983c a82c a5bc
000001f0: 3fa0 12ba fb6c 703a ff60 e43c 85d9 853c
00000200: c04a 1d3d 286b 26bc 2cf9 733d b3cc e6bc
00000210: 7e79 db3b 2311 5f3c 1dd8 3fbd cc38 fbbc
00000220: 6090 0bbd 5408 833d 367e 793d 7e03 e03c
00000230: 4d74 5ebd 406a 0fbe ae41 afbd e13a edbd
00000240: 457d 1abe 963a 28bd d6f9 f3bd f36c 04be
00000250: 1a0b 00be 5115 94bd a57d 253d fd46 92bd
00000260: a34f 303d 2c15 343d 571e c2bc 7fc0 ac3b
00000270: a748 acbb 8962 f3ba 6698 9b3c a1bf 133d
00000280: a647 9a3c 51e1 80bd 5792 40bd 59fe 09bd
00000290: f429 1fbc 6f76 ac3c 41e8 6bbd a160 39bc
000002a0: 017c 8bbd 160a 23bd df42 6cbd a335 913c
000002b0: 7cc9 2ebd a80f 5fbc 8372 aabc 4789 3dbd
000002c0: 2589 9abd 219f 543c e19f 06bd a802 2abd
000002d0: 3c1e 1d3c 95ce b7bc 6138 5ebd 63b9 39bc
000002e0: 193f b0bc e9a0 91bd 166f 93bc 4aaf 6f3c
000002f0: 72b0 983d 8da1 393c 029f 86bb d13c 16bd
00000300: 167c a4bd e688 6fbb 93fd 1938 8d06 acbd
00000310: 88d1 0bbe 41f2 81bd a098 8bbd 8349 89bd
00000320: 80b6 a239 8549 ac3c 549e 523d 48f7 333d
00000330: 075e 243d a086 ce3d b090 3a3d 5db3 973d
00000340: 2340 09ba e924 a33d 520b 483d 8a50 833c
00000350: c07f 4ebd 1981 b0bc dedc 93bd 01d7 c1bc
00000360: 57e0 d33c ad3f 8bbd 2242 aabc 630f 27bd
00000370: 3e7c d53d 2871 1b3e 6ca5 e63d 9248 b73d
00000380: af3d 3d3d f819 3abd d7c0 023d f49e a8bc
00000390: 66a0 41bd fbd1 5cbd 239f 77bd a9c5 c03c
000003a0: 0ce5 8d3c ae77 9f3a faef 33bd ee37 353d
000003b0: 0bb2 d63c f3bf 64bd 00bb 2ebc dc11 0b3c
000003c0: 45db b43c 43ce 1abd 31a7 04bd e1c1 c6bc
000003d0: 641a 64bd f2d2 113d 48b3 70bd e0f1 4bbd
000003e0: d949 aabd 81ad 54bd b427 fbbc ff71 50bd
000003f0: 437a dfbd a796 373d 7857 a53d eff9 01bd

module.conv2.bias f4 [20]
0.036328044 -0.029816343 -0.052266978 -0.025616234 -0.03588463 -0.035030074 0.0078715505 -0.075831674
0.008053735 0.059996385 0.011919516 0.008970548 0.0032119253 0.073453575 0.039945967 -0.036050286
0.05650311 0.031549912 0.01570465 -0.02807409
00000000: b7cc 143d 6741 f4bc e615 56bd 23d9 d1bc
00000010: c3fb 12bd b27b 0fbd adf7 003c a34d 9bbd
00000020: d0f3 033c c5be 753d 134a 433c 35f9 123c
00000030: 2a7f 523b d46e 963d 629e 233d 77a9 13bd
00000040: ce6f 673d 7b3a 013d 0aa7 803c a2fb e5bc

module.fc1.weight f4 [50, 320]
-0.053051453 -0.027064374 0.0012178503 -0.029075775 0.0058283065 -0.012044641 0.0448241 0.023608701
0.009876702 -0.10568343 -0.014584914 0.029427033 -0.026017902 -0.053778443 -0.026005648 0.04355274
-0.03974269 0.02436109 0.017070016 0.0854688 0.033104375 7.447519e-05 -0.059222586 -0.007171136
0.04599964 -0.09185347 -0.095286295 -0.07455411 -0.003087774 0.022270648 -0.02034041 -0.031888075
-0.038779177 0.021267362 0.013729565 0.07632459 0.046298306 -0.018754859 -0.04693792 -0.045267425
-0.06902311 -0.018323144 -0.00012661202 0.0051232334 -0.0047002765 -0.007055514 1.213642e-05 0.0025197936
-0.036870115 0.0040162443 0.0032823067 0.0050545414 0.058110952 0.023034714 -0.0059435824 0.03605793
-0.029565679 -0.0339416 0.0014275878 0.025791058 0.021059152 0.0141984895 0.034460485 -0.006088335
-0.0048355456 0.03806459 1.3128954e-06 -0.0037333937 -0.012969683 -0.024997985 0.012532293 -0.022421934
0.115686215 0.022968978 0.026714569 0.045179997 0.084833294 -0.01646653 -0.03355644 -0.060639635
0.035661176 -0.034658983 0.0026635805 -0.009571536 0.0037017378 -0.023172691 0.0048493976 -0.0077174315
0.038777847 0.083012156 0.08909003 -0.016849773 -0.01435483 0.059098296 0.004336784 -0.013755481
0.041953146 -0.04139568 0.038352456 0.09334148 -0.0025078342 -0.07072865 -0.016081437 0.03778081
-0.05259228 0.048394557 -0.030393992 -0.01625166 0.0032844378 -0.0071319393 -0.040105224 -0.0688787
0.0044686506 0.024630807 0.008303462 0.04036144 0.01759234 -0.042441137 0.0009661702 0.024354178
0.0073805368 0.03211199 -0.005269045 -0.0041388967 0.010726115 -0.04222971 0.009247114 -0.030242195
0.07286429 0.018486027 -0.0040331413 0.062359944 0.040426947 -0.08754465 -0.031435333 0.032951288
-0.022970513 -0.049736105 -0.04092835 0.017449118 0.025295665 -0.009660077 -0.009256844 -0.024944082
0.00020409614 0.028125793 0.04488056 -0.033656176 0.0195737 -0.06348522 -0.054087166 -0.006539464
-0.0030365374 0.027631566 0.032170203 -0.036444582 -0.0034537956 0.00030705333 0.007883885 -0.004363814
0.0193917 -0.01373449 0.01703325 0.04115516 0.023906894 0.02674441 0.014863855 0.0137467915
-0.013479074 -0.011424689 0.0020466582 -0.0023373405 0.03977273 0.019052025 -0.015871659 -0.020557875
-0.027308065 0.06194218 -0.01506814 0.0024833581 -0.03402825 -0.038513213 -0.041765135 0.026649645
-0.027614618 0.07631554 -0.019339673 0.0062498576 0.027773783 0.05996431 0.060965784 0.049026974
-0.076451354 0.0073298444 0.025141383 0.014734955 0.0464828 0.011684173 0.05406476 0.04468965
-0.009767373 -0.0244131 -0.007901878 0.0041276584 0.00017047762 0.023282856 -0.0015953834 0.04409973
-0.042399578 0.020635383 -0.0019157506 0.0009444821 0.033276085 0.04088293 -0.04284757 -0.03809475
-0.038733825 0.025919843 0.083092004 0.033807546 -0.0032004104 0.072250776 0.030032033 0.019442858
0.0352485 0.008420695 0.041406985 0.052484833 -0.020487327 -0.14656194 -0.021360742 0.0041362606
-0.060097672 -0.06844026 -0.026809312 -0.04485233 0.039697126 0.019134589 -0.030089 -0.054051694
-0.053178456 0.0073998915 -0.01945509 -0.049061805 0.04417543 -0.0400544 -0.014990066 -0.026728112
0.019442022 -0.011585633 -0.09049735 0.021671224 -0.03850636 -0.009986048 0.015788276 -0.010133766
00000000: 7b4c 59bd 1bb6 ddbc 46a0 9f3a 5230 eebc
00000010: 61fb be3b e356 45bc 7a99 373d 0967 c13c
00000020: e4d1 213c 8e70 d8bd 90f5 6ebc f610 f13c
00000030: 7f23 d5bc c946 5cbd cc09 d5bc 5c64 323d
00000040: 3bc9 22bd e990 c73c 6bd6 8b3c 440a af3d
00000050: 7498 073d 902f 9c38 6293 72bd d9fb eabb
00000060: 1e6a 3c3d ac1d bcbd 7625 c3bd d3af 98bd
00000070: 405c 4abb ef70 b63c eea0 a6bc 129d 02bd
00000080: ead6 1ebd e438 ae3c f8f1 603c 1150 9c3d
00000090: 4ba3 3d3d caa3 99bc fa41 40bd 566a 39bd
000000a0: fd5b 8dbd 6b1a 96bc 28c3 04b9 cce0 a73b
000000b0: c704 9abb f131 e7bb 879d 4b37 1f23 253b
000000c0: 1e05 17bd b39a 833b f81b 573b 91a0 a53b
000000d0: c005 6e3d 4cb3 bc3c 62c2 c2bb 7bb1 133d
000000e0: b933 f2bc 5906 0bbd e61d bb3a c547 d33c
000000f0: 3e84 ac3c c8a0 683c 7026 0d3d a880 c7bb
00000100: 7f73 9ebb 9ee9 1b3d be36 b035 f4ab 74bb
00000110: cb7e 54bc 93c8 ccbc 3f54 4d3c 34ae b7bc
00000120: e5ec ec3d 7029 bc3c 83d8 da3c a90e 393d
00000130: 14bd ad3d d1e4 86bc 7a72 09bd 4461 78bd
00000140: 7411 123d 94f6 0dbd 778f 2e3b efd1 1cbc
00000150: db98 723b a8d4 bdbc b2e7 9e3b 82e2 fcbb
00000160: 85d5 1e3d 4702 aa3d d574 b63d 8908 8abc
00000170: 8530 6bbc 0e11 723d 951b 8e3b ab5e 61bc
00000180: 10d7 2b3d 848e 29bd 7717 1d3d d129 bf3d
00000190: 7a5a 24bb 2fda 90bd 38bd 83bc 0dc0 1a3d
000001a0: 016b 57bd 5f39 463d d2fc f8bc 3422 85bc
000001b0: b93f 573b 0bb3 e9bb 6045 24bd 4710 8dbd
000001c0: c26d 923b 8cc6 c93c 3e0b 083c 0a52 253d
000001d0: d01d 903c c2d6 2dbd 9646 7d3a 6a82 c73c
000001e0: 6ed8 f13b dd87 033d f4a7 acbb 959f 87bb
000001f0: 96bc 2f3c 0ff9 2cbd 3581 173c 7bbe f7bc
00000200: df39 953d 0270 973c 7128 84bb 246d 7f3d
00000210: ba96 253d 9c4a b3bd 56c2 00bd eef7 063d
00000220: a82c bcbc 16b8 4bbd 7ca4 27bd 74f1 8e3c
00000230: db38 cf3c 4d45 1ebc 05aa 17bc 8857 ccbc
00000240: a402 5639 1068 e63c aed4 373d 0fdb 09bd
00000250: 0659 a03c 8a04 82bd 818a 5dbd 0049 d6bb
00000260: a500 47bb 985b e23c e7c4 033d ea46 15bd
00000270: 1359 62bb 00fc a039 692b 013c 53fe 8ebb
00000280: 58db 9e3c a006 61bc 5089 8b3c 5092 283d
00000290: 64d8 c33c 1817 db3c 8787 733c 393a 613c
000002a0: 56d7 5cbc 9e2e 3bbc 3a21 063b 112e 19bb
000002b0: bbe8 223d fe12 9c3c 4805 82bc fd68 a8bc
000002c0: 2ab5 dfbc 15b7 7d3d 5ce0 76bc d6bf 223b
000002d0: 3561 0bbd 08c0 1dbd eb11 2bbd 5b50 da3c
000002e0: 0d38 e2bc 524b 9c3d 3c6e 9ebc 9bcb cc3b
000002f0: d885 e33c 239d 753d 42b7 793d 82d0 483d
00000300: 8792 9cbd 312f f03b 4df5 cd3c e16a 713c
00000310: c064 3e3d f96e 3f3c 0373 5d3d 7f0c 373d
00000320: 5507 20bc fbfd c7bc e176 01bc 4f41 873b
00000330: 3dc2 3239 b0bb be3c 2f1c d1ba eba1 343d
00000340: 2eab 2dbd 890b a93c ec19 fbba 1f97 773a
00000350: 814c 083d dc74 273d ef80 2fbd 3e09 1cbd
00000360: 5ca7 1ebd da55 d43c 242c aa3d c879 0a3d
00000370: fabd 51bb 37f8 933d bd05 f63c a146 9f3c
00000380: bb60 103d f4f6 093c 5f9a 293d 56fa 563d
00000390: 0ad5 a7bc 5514 16be b9fc aebc 7889 873b
000003a0: fa28 76bd 682a 8cbd 349f dbbc 14b7 37bd
000003b0: 7499 223d 24c0 9c3c 357d f6bc 4f65 5dbd
000003c0: a7d1 59bd ca7a f23b 4860 9fbc 08f5 48bd
000003d0: 4cf1 343d 1510 24bd e598 75bc eaf4 dabc
000003e0: e044 9f3c abd1 3dbc ad56 b9bd da87 b13c
000003f0: d8b8 1dbd 859c 23bc 6a56 813c 1808 26bc

module.fc1.bias f4 [50]
0.015110696 -0.039927926 0.01958224 0.0126556745 0.07348721 0.04549118 -0.009663108 0.035276815
-0.029485026 0.04718495 -0.028171318 0.0387735 -0.011005286 -0.016959112 -0.0051081954 0.030351626
-0.056305528 0.05171571 0.033657577 -0.005751002 0.037767697 -0.0014296366 0.0057049193 -0.007120886
0.025193917 0.0634589 0.051852576 -0.009338233 0.0825492 0.048772886 0.038973123 0.001139543
0.0019533215 0.0038978178 -0.0346354 0.024146995 0.011222132 0.04091525 0.054870408 0.052007858
0.06851834 -0.0016863486 0.07296507 0.026628476 -0.020801757 -0.028526412 -0.011082031 0.032010794
0.058555476 -0.016045978
00000000: da92 773c 778b 23bd ef6a a03c bf59 4f3c
00000010: 7680 963d f654 3a3d 0352 1ebc 6c7e 103d
00000020: 958a f1bc 0245 413d 89c7 e6bc f6d0 1e3d
00000030: 844f 34bc d6ed 8abc a662 a7bb f9a3 f83c
00000040: a0a0 66bd dad3 533d 87dc 093d e772 bcbb
00000050: 4db2 1a3d a562 bbba 55f0 ba3b 5256 e9bb
00000060: 7963 ce3c bdf6 813d 5e63 543d 63ff 18bc
00000070: 8e0f a93d 14c6 473d 48a2 1f3d b85c 953a
00000080: 4c03 003b 8872 7f3b d9dd 0dbd ebcf c53c
00000090: 08dd 373c c096 273d cbbf 603d 3106 553d
000000a0: 5853 8c3d 7808 ddba b66e 953d f623 da3c
000000b0: 7268 aabc 39b0 e9bc 6891 35bc c01d 033d
000000c0: ded7 6f3d db72 83bc

module.fc2.weight f4 [10, 50]
0.24048522 0.12447443 -0.17240171 -0.25337392 -0.12180991 0.0041880435 0.04487671 0.2140028
-0.17758308 0.18258831 -0.16959077 0.23415244 -0.053407002 -0.13853538 0.187798 -0.13857298
-0.122275695 -0.13630068 -0.13153921 -0.21954837 0.19872084 -0.15104423 -0.10049499 0.27167147
0.019775841 -0.19331156 -0.10285044 -0.13650845 -0.0314649 -0.12048372 0.21454549 -0.1584094
-0.1537137 -0.12669781 -0.04710978 0.2017051 -0.03078608 -0.005144317 -0.12047912 0.15519127
-0.24817774 -0.13650393 -0.10838722 0.23549092 -0.00025982645 0.055910405 0.113233306 0.15039629
-0.092812166 -0.111214384 0.19197486 -0.23446928 0.12230054 -0.25765365 0.17068528 0.2752848
0.21269183 0.0038737366 -0.17662182 0.20078968 -0.037911262 -0.13679887 0.10810977 -0.1353555
-0.18896645 0.1966415 0.04940342 -0.1364399 0.10775918 0.15869442 -0.05936361 0.2189929
0.074691676 0.0056059496 -0.22321153 0.14001332 -0.117557205 0.1760398 0.20113073 -0.13952687
-0.18275195 0.116899535 0.068257324 -0.19262876 0.105167955 0.14441992 0.11975176 -0.13091305
-0.2701333 -0.2122249 0.077262975 0.22390698 -0.14560077 -0.14148228 0.19928417 0.2729697
-0.2912869 -0.3196772 0.10432232 0.06240831 -0.14306122 0.077240616 0.15784763 -0.20296045
0.034278147 -0.096149296 -0.003848129 0.20483135 -0.025461357 -0.029757138 0.1777177 0.13248831
0.21984468 -0.23602606 0.084190875 -0.14764659 -0.12253913 -0.17383124 -0.24160464 -0.18291868
-0.1271707 -0.14906074 0.10589814 0.20851794 -0.011905241 0.16892342 0.18194142 0.22072214
0.19644874 0.06930967 -0.008069202 -0.078047164 0.24192408 0.01409366 -0.12374207 0.12524743
-0.19657613 -0.18012375 0.14284715 0.072023936 0.17175953 0.089146964 -0.088612996 0.17893174
0.19204925 0.16509813 0.035636764 -0.14738546 0.09023006 -0.15420964 -0.08253172 0.07080199
0.137322 0.0901432 0.24550287 -0.06689673 -0.18422417 0.18962067 0.012543088 0.24196242
0.1805569 -0.14763224 0.20319812 0.18912327 -0.06322538 -0.16291192 0.238245 -0.021956189
-0.20893025 -0.15863885 -0.11517741 -0.05475291 0.11524677 -0.05379614 0.025766762 0.081129774
-0.095260665 -0.17324962 -0.17864273 -0.08377756 -0.20917939 0.0074486225 -0.07425646 0.24333885
0.117743224 -0.21518232 -0.23680702 0.2200735 -0.076780885 -0.1631813 0.17429104 -0.1708153
-0.1864376 -0.047705006 0.19727542 -0.14949413 0.054114707 -0.050664086 0.12290828 0.21221289
-0.22600721 0.11718279 -0.1224262 0.13111326 -0.08814763 0.1612888 -0.080319636 -0.08007726
0.25657117 -0.18551075 -0.07668771 0.02141046 -0.12460399 -0.12831305 -0.11517034 0.21394354
-0.010441212 0.20162728 0.06606571 0.20231459 -0.04918201 0.14217594 0.14181152 0.016973786
-0.13654102 -0.16434221 0.20391302 -0.085017174 -0.08576826 0.2996537 -0.18356183 -0.097378194
-0.0954881 -0.12769811 0.13346076 -0.08394762 0.116135925 -0.073482275 0.19222215 0.14031725
-0.2055205 0.25095803 0.2872882 -0.02896636 0.009299411 -0.07040579 -0.17172629 -0.1626439
0.10956547 -0.14948998 0.043054387 -0.27491844 -0.09179287 0.13605931 -0.12786584 0.026567679
00000000: c241 763e 73ec fe3d 138a 30be 3aba 81be
00000010: 7977 f9bd db3b 893b a4d0 373d 8d23 5b3e
00000020: 57d8 35be 6ef8 3a3e 34a9 2dbe a8c5 6f3e
00000030: 4dc1 5abd 38dc 0dbe 1e4e 403e 13e6 0dbe
00000040: ae6b fabd 6892 0bbe 37b2 06be 4ad1 60be
00000050: 7a7d 4b3e 57ab 1abe 51d0 cdbd 8618 8b3e
00000060: f200 a23c 77f3 45be 40a3 d2bd dfc8 0bbe
00000070: 57e1 00bd 2bc0 f6bd d0b1 5b3e 1336 22be
00000080: 2067 1dbe 12bd 01be 2ff6 40bd c88b 4e3e
00000090: 1733 fcbc a991 a8bb c2bd f6bd 76ea 1e3e
000000a0: 4e22 7ebe b0c7 0bbe 1efa ddbd 8824 713e
000000b0: 5139 88b9 4f02 653d dde6 e73d 7c01 1a3e
000000c0: 4e14 bebd 5ec4 e3bd 0f95 443e b718 70be
000000d0: b578 fa3d 2eeb 83be 1fc8 2e3e 21f2 8c3e
000000e0: e3cb 593e 84de 7d3b 5adc 34be cf9b 4d3e
000000f0: d748 1bbd 0115 0cbe a868 dd3d a29a 0abe
00000100: 6c80 41be 645c 493e 3e5b 4a3d e7b6 0bbe
00000110: d8b0 dc3d ca80 223e 4227 73bd ad3f 603e
00000120: f3f7 983d 1db2 b73b 9091 64be a75f 0f3e
00000130: d5c1 f0bd c743 343e 37f5 4d3e 22e0 0ebe
00000140: 5423 3bbe 0669 ef3d 7fca 8b3d 7940 45be
00000150: 4c62 d73d d1e2 133e 6940 f53d 120e 06be
00000160: e94e 8abe 7c51 59be 0d3c 9e3d df47 653e
00000170: 5e18 15be bbe0 10be 2611 4c3e afc2 8b3e
00000180: 8e23 95be bbac a3be f1a6 d53d db9f 7f3d
00000190: a47e 12be 5430 9e3d cfa2 213e ddd4 4fbe
000001a0: 3e67 0c3d ece9 c4bd e430 7cbb 4fbf 513e
000001b0: 5694 d0bc 3ec5 f3bc a1fb 353e 04ab 073e
000001c0: f71e 613e d1b0 71be 446c ac3d ab30 17be
000001d0: ccf5 fabd d100 32be 3567 77be 094f 3bbe
000001e0: 0939 02be 61a3 18be 20e1 d83d ba85 553e
000001f0: 330e 43bc 43fa 2c3e da4e 3a3e fc04 623e
00000200: dc29 493e 3af2 8d3d b034 04bc 31d7 9fbd
00000210: f2ba 773e 18e9 663c 7b6c fdbd dd40 003e
00000220: 414b 49be 5c72 38be 8646 123e 4981 933d
00000230: bbe1 2f3e af92 b63d bb7a b5bd e239 373e
00000240: 8fa8 443e 7c0f 293e dbf7 113d 37ec 16be
00000250: 8aca b83d 22e9 1dbe 6406 a9bd a200 913d
00000260: 239e 0c3e ff9c b83d 1b65 7b3e 2701 89bd
00000270: 43a5 3cbe ec2b 423e 8681 4d3c ffc4 773e
00000280: e8e3 383e e82c 17be 2b13 503e 88a9 413e
00000290: 4f7c 81bd 62d2 26be 7ff6 733e 77dd b3bc
000002a0: d0f1 55be 3972 22be 22e2 ebbd 9644 60bd
000002b0: 8006 ec3d 5759 5cbd d114 d33c 5e27 a63d
000002c0: 0618 c3bd 5968 31be 1fee 36be 9293 abbd
000002d0: 1f33 56be 9313 f43b c513 98bd d22d 793e
000002e0: 5c23 f13d c158 5cbe 8a7d 72be f35a 613e
000002f0: 4c3f 9dbd 0019 27be 5a79 323e 35ea 2ebe
00000300: 80e9 3ebe 5366 43bd 9102 4a3e fd14 19be
00000310: 62a7 5d3d 2585 4fbd 56b7 fb3d 564e 593e
00000320: 6f6e 67be 88fd ef3d 96ba fabd 8e42 063e
00000330: bf86 b4bd e428 253e 9f7e a4bd 8cff a3bd
00000340: 4c5d 833e 88f6 3dbe 720e 9dbd fd64 af3c
00000350: 6030 ffbd 7f64 03be 6dde ebbd 0414 5b3e
00000360: 9e11 2bbc 6277 4e3e 754d 873d 8e2b 4f3e
00000370: 1373 49bd 9296 113e 0a37 113e 9c0c 8b3c
00000380: 69d1 0bbe 5349 28be 93ce 503e 7c1d aebd
00000390: 45a7 afbd 366c 993e a2f7 3bbe 386e c7bd
000003a0: 448f c3bd 4bc3 02be f0a9 083e bbec abbd
000003b0: acd8 ed3d e07d 96bd e2d5 443e 53af 0f3e
000003c0: f773 52be 927d 803e 7017 933e dc4a edbc
000003d0: 8f5c 183c e930 90bd 04d9 2fbe 1f8c 26be
000003e0: dc63 e03d e713 19be cc59 303d 1cc2 8cbe
000003f0: e6fd bbbd 2253 0b3e 43ef 02be 76a4 d93c

module.fc2.bias f4 [10]
0.02508454 -0.04518575 -0.28785443 -0.14818625 -0.11138416 0.14798741 -0.18814489 -0.0633524
0.15217613 -0.068204254
00000000: 187e cd3c b114 39bd a861 93be 23be 17be
00000010: 611d e4bd 038a 173e 0ea9 40be e7be 81bd
00000020: 0fd4 1b3e acae 8bbd

momentum_buffer f4 [10, 1, 5, 5]
-0.012565931 -0.011645582 -0.010255211 -0.008038553 -0.0089271115 -0.004798423 -0.0021370002 0.0010818115
-0.0005420355 -0.006787594 -0.00097432 0.0013785377 0.0013283617 -0.0051098727 -0.012347638 -0.0007929014
-0.004599384 -0.010112869 -0.011868175 -0.009516874 -0.008834098 -0.013127647 -0.0207104 -0.018594986
-0.0070085805 -0.009220281 -0.019241504 -0.026042927 -0.020719936 -0.011691213 -0.016492244 -0.023915667
-0.014539221 -0.005907488 0.001339617 -0.022349626 -0.020262338 -0.006469167 0.0005051303 -0.00017760275
-0.01851942 -0.009984009 0.004283879 0.0056226947 -0.0022374482 -0.010013895 -3.9766543e-05 0.0053995023
0.00084066327 -0.008041957 0.037758283 0.046668116 0.048488706 0.034084775 0.023382476 0.05896836
0.06130301 0.049118157 0.030392315 0.021313636 0.058116112 0.04373366 0.032178205 0.015915716
0.015568156 0.03539778 0.019153351 0.008204843 -0.00031279493 0.0016766912 0.019663049 0.0062625557
-0.0011335541 -0.0025716955 0.001799053 0.013923755 0.01080623 0.00703294 0.0058437036 0.006862388
0.010277329 0.009269806 0.008062152 0.008551336 0.0068400707 0.010580722 0.013528404 0.016835436
0.015307052 0.012262565 0.016838318 0.022261284 0.02172067 0.013965268 0.0064907745 0.022427553
0.022256771 0.012388075 -0.00037798658 -0.0039226892 -0.012326012 -0.01005247 -0.0076277815 -0.0041005933
-0.00026607717 -0.0016067205 0.0019617095 0.0010334614 0.0052732225 0.008002576 0.0020858324 0.005298658
0.005696633 0.008361282 0.008000066 -0.0009464547 0.0011628029 0.004260334 0.007349845 0.008060248
-0.0034651966 0.0025252306 0.007560524 0.009714456 0.00961684 -0.019849354 -0.017114632 -0.010101061
-0.0027347445 0.0006571233 -0.018170968 -0.013435876 -0.0051890737 -0.0018010486 0.005213498 -0.0083605265
-0.0068104193 -0.0024589153 0.001376291 0.0067098625 0.0014320513 0.00044729922 0.0023064648 0.0040817307
0.007477008 -0.00024931168 -0.0027215313 0.00041843718 0.003118561 0.006492295 -0.0040320545 -0.009695624
-0.011593781 -0.010106815 -0.0069641825 -0.0047617815 -0.012519603 -0.012759482 -0.008172074 -0.005811894
-0.011758328 -0.016129449 -0.010079335 -0.0023408714 -0.0006586093 -0.0043784697 -0.0084779505 0.0009489248
0.003948654 0.0037390795 0.00089030433 0.0019926121 0.0047091753 0.003502028 0.0013531363 -0.0013357385
-0.0037828493 -0.012997349 -0.019743077 -0.01575313 0.0025621043 -0.005903971 -0.0060382187 -0.010613897
-0.0060020955 -0.0026636138 -0.0062807733 -0.004124698 -0.006667948 -0.004088926 -0.0074266954 -0.008611679
-0.002454812 -0.0013285287 -0.0007912165 -0.016518239 -0.011646144 -0.0024284848 0.00034419284 -0.0015122909
0.01333561 0.020798732 0.018232586 0.009792053 0.008286035 0.011808933 0.018047616 0.011894073
0.007486347 0.011057746 0.01610267 0.019759055 0.01134433 0.013912361 0.020786446 0.024159912
0.019659488 0.018376635 0.025213111 0.023801422 0.02658535 0.02392895 0.026312895 0.022351863
0.017520018 -0.008767661 -0.008879026 -0.0039941245 -0.0015401447 -0.0014127576 -0.012176234 -0.008719535
-0.004544755 -0.003051736 -0.0014541058 -0.008648331 -0.0029570805 -0.0018993561 0.0031063955 0.0014885789
0.0005723686 0.0018364468 0.0040396433 0.0024392952 -0.001044899 -0.00023548293 0.002743743 0.0037680978
0.0011872512 0.0031814473
00000000: 56e1 4dbc 1ccd 3ebc 7905 28bc 23b4 03bc
00000010: 0543 12bc 173c 9dbb ea0c 0cbb 92cb 8d3a
00000020: 6317 0eba 776a debb 8269 7fba 0db0 b43a
00000030: 6c1c ae3a b870 a7bb bf4d 4abc b6da 4fba
00000040: 6eb6 96bb 72b0 25bc bc72 42bc aaec 1bbc
00000050: e4bc 10bc 5815 57bc dba8 a9bc 8354 98bc
00000060: 3ca8 e5bb a910 17bc 5ca0 9dbc fa57 d5bc
00000070: dbbc a9bc 808c 3fbc be1a 87bc caea c3bc
00000080: ea35 6ebc 9a93 c1bb 1696 af3a 9016 b7bc
00000090: 34fd a5bc 4efb d3bb b86a 043a e03a 3ab9
000000a0: 0ab6 97bc f893 23bc c85f 8c3b 953e b83b
000000b0: 27a2 12bb 5211 24bc 00cb 26b8 4fee b03b
000000c0: f55f 5c3a 6ac2 03bc 6ea8 1a3d 1127 3f3d
000000d0: 189c 463d 7a9c 0b3d 9b8c bf3c cf88 713d
000000e0: dd18 7b3d 1f30 493d 4ef9 f83c ef99 ae3c
000000f0: 290b 6e3d 1122 333d 4bcd 033d ad61 823c
00000100: 9411 7f3c 43fd 103d 7de7 9c3c 9b6d 063c
00000110: a0fe a3b9 6cc4 db3a 6714 a13c 2036 cd3b
00000120: c493 94ba e489 28bb 34ce eb3a 7620 643c
00000130: 9d0c 313c 9474 e63b 8a7c bf3b e2dd e03b
00000140: 3e62 283c 62e0 173c 1e17 043c e71a 0c3c
00000150: ac22 e03b c45a 2d3c 3da6 5d3c 78ea 893c
00000160: 6eca 7a3c ede8 483c 83f0 893c 4c5d b63c
00000170: 8cef b13c 94ce 643c 90b0 d43b fdb9 b73c
00000180: d553 b63c 5af7 4a3c 802c c6b9 e789 80bb
00000190: 0bf3 49bc 1db3 24bc 78f2 f9bb 455e 86bb
000001a0: 4680 8bb9 9898 d2ba 0690 003b 3675 873a
000001b0: ffca ac3b 3d1d 033c 76b2 083b 5da0 ad3b
000001c0: d2aa ba3b c2fd 083c b512 033c 801b 78ba
000001d0: 3169 983a 469a 8b3b f8d6 f03b 210f 043c
000001e0: 5a18 63bb 577e 253b 46be f73b 6229 1f3c
000001f0: f38f 1d3c 1d9b a2bc fc33 8cbc ec7e 25bc
00000200: 6639 33bb cc42 2c3a 48db 94bc 2622 5cbc
00000210: 1b09 aabb 2a11 ecba fed5 aa3b 97fa 08bc
00000220: f029 dfbb c125 21bb aa64 b43a 68de db3b
00000230: abb3 bb3a 7c83 ea39 0f28 173b 0ac0 853b
00000240: b001 f53b 0cb6 82b9 b85b 32bb b061 db39
00000250: c660 4c3b 51bd d43b 531f 84bb 65da 1ebc
00000260: d8f3 3dbc 0e97 25bc cc33 e4bb b808 9cbb
00000270: 051f 4dbc 250d 51bc 2ae4 05bc b371 bebb
00000280: 01a6 40bc e821 84bc cc23 25bc 4e69 19bb
00000290: 86a6 2cba 4479 8fbb 1ae7 0abc 44c1 783a
000002a0: b663 813b 580b 753b 5063 693a 7c96 023b
000002b0: 6d4f 9a3b 4882 653b b85b b13a f213 afba
000002c0: aee9 77bb d5f2 54bc 3cbc a1bc b50c 81bc
000002d0: fae8 273b 1976 c1bb 40dc c5bb e9e5 2dbc
000002e0: 3aad c4bb 0690 2ebb f2ce cdbb 7a28 87bb
000002f0: cd7e dabb 66fc 85bb a35b f3bb 0018 0dbc
00000300: e9e0 20bb 0722 aeba a469 4fba 4251 87bc
00000310: 78cf 3ebc 3727 1fbb c874 b439 1038 c6ba
00000320: 9a7d 5a3c 1a62 aa3c 815c 953c d96e 203c
00000330: 26c2 073c 417a 413c 98d8 933c 5cdf 423c
00000340: 0850 f53b 8c2b 353c bfe9 833c bedd a13c
00000350: 92dd 393c acf0 633c 5648 aa3c 02eb c53c
00000360: ef0c a13c 998a 963c ba8b ce3c 33fb c23c
00000370: 85c9 d93c a506 c43c 248e d73c 411b b73c
00000380: 2486 8f3c 3ca6 0fbc 5679 11bc 25e1 82bb
00000390: aede c9ba 472c b9ba d47e 47bc 61dc 0ebc
000003a0: 2bec 94bb a2ff 47bb b297 beba bbb1 0dbc
000003b0: 94cb 41bb d1f3 f8ba ab94 4b3b 6b1c c33a
000003c0: 020b 163a eeb4 f03a fc5e 843b 95dc 1f3b
000003d0: fef4 88ba f8eb 76b9 5ed0 333b 31f2 763b
000003e0: 8a9d 9b3a d47f 503b

momentum_buffer f4 [10]
-0.0030866938 -0.01329825 -5.9648068e-05 0.007178817 -0.0028216473 -0.00537994 -0.004089402 -0.008895523
0.01396741 -0.0027645277
00000000: 214a 4abb e7e0 59bc a02e 7ab8 483c eb3b
00000010: 63eb 38bb 354a b0bb 6400 86bb 87be 11bc
00000020: 90d7 643c 142d 35bb

momentum_buffer f4 [20, 10, 5, 5]
0.00056217914 0.0022731149 -0.00082332647 0.007581949 0.010264075 0.002155265 0.0057004965 0.000904852
0.0029677872 -2.5748304e-05 0.0028935948 0.0012845614 0.0027202347 0.00080201216 0.0026396215 0.0009299231
0.0021553095 0.0053182156 0.006342033 0.006775005 0.00021359831 0.004822482 0.008259859 0.007670118
0.0034966334 0.001958444 0.004178201 4.234782e-06 -0.0010499776 -0.0073016253 0.0024669105 -0.0008668861
-0.002576312 -0.002023595 0.00048507843 0.002712975 -0.00065368623 0.0005085848 0.0046472317 0.010535921
0.0022111638 -7.308298e-05 0.00174225 0.0054138284 0.0072706793 0.0028814406 0.0007201743 0.0003747174
0.004539299 0.0056190435 0.0036122412 0.0070405114 -0.00012462074 -0.0002145814 -0.00043138815 0.005178417
0.008296385 -1.3335142e-05 0.0045534135 0.014465537 0.00902966 0.013307407 0.020221297 0.02080416
0.023033533 0.002181558 0.009325832 0.014571533 0.012449243 0.0071244286 0.0020567817 0.0023358255
0.0024779576 0.0015647704 -0.0002519883 0.0018857856 0.00060431537 -0.0024821179 0.0006573474 0.0062879343
0.00013027602 0.00034167717 0.0036057094 0.008413069 0.011065298 -0.0012901898 9.062182e-05 0.0016365007
0.0021453246 0.0012993794 -0.00014879479 6.032962e-05 0.00030353578 0.0014061781 0.0013475412 0.000585195
0.0006352626 0.001841434 0.0056330743 0.0056633493 0.0028182832 0.0021638568 0.0021695003 0.0043369518
0.013407958 0.0030701126 0.0068497784 0.006578113 0.009543745 0.007914475 0.0016170355 0.0052640233
0.0054551135 0.0056556086 0.0061664805 0.00116994 0.0023160921 0.004994912 0.006126118 0.0073161544
0.002139065 0.0033415882 0.007084887 0.008385114 0.006975893 0.004030534 0.0066387653 0.006055212
0.004254556 -0.0012970908 0.0047178837 0.008299772 0.009613872 0.009760102 0.0030363789 0.0042423364
0.0027224922 0.0062793083 0.010330218 0.010820966 0.0016688957 -0.0012612229 0.00042482337 0.0070056794
0.008917261 0.0047070542 0.0009282611 0.0015995753 0.006269792 0.009145836 3.998929e-05 0.0010367058
-0.00074291887 -0.0024894965 -0.0045211306 0.00094660925 -0.0008515165 -0.002277924 -0.0012889827 -0.0007337469
0.00034291187 -0.0019643407 -0.00033705053 0.0008988825 0.0031222526 0.0006589229 -0.00056038034 0.00017042074
0.0020496016 0.0025939946 0.00014935539 0.00045752272 5.5388635e-05 0.0024163672 0.002978179 0.008612963
0.0040471535 0.003601479 -0.0017770389 0.0013318601 0.00503209 0.004329441 0.0027172808 0.009005845
0.015870867 0.0063092383 0.009501925 0.0127021335 0.018819684 0.021396253 0.0040721716 0.005083457
0.009770901 0.009745918 0.010348118 0.0035977797 0.0015165433 0.0048615085 0.007401501 0.012811348
0.0038087547 0.0057417345 0.009903372 0.010453448 0.01305616 0.0031522196 0.007944819 0.015183525
0.011146124 0.0066395868 0.0018456266 0.0015175486 0.0037225073 0.004450553 0.002436432 0.0009772897
0.0011614054 0.0016794465 0.004689346 0.0067252754 0.002816373 0.0031420556 0.0065921457 0.0054751616
0.006239128 0.0006130969 0.001139799 0.0013311845 0.0023662352 -0.001534776 0.0016187635 0.0013987462
0.0007106086 0.0011723596 0.0001725856 0.0014392198 -7.1791e-06 -0.00091852376 0.0012208512 0.0023996069
0.0016072629 -0.0011599184 2.2631444e-05 0.0010398463 0.0032086298 0.002210709 9.501819e-06 -6.046903e-06
0.0007183606 0.001799934 0.0071586617 0.0014519799 0.002951861 0.00801576 0.013244909 0.005334965
00000000: 345f 133a 8af8 143b 81d4 57ba ff71 f83b
00000010: a72a 283c 593f 0d3b 3bcb ba3b 9733 6d3a
00000020: 357f 423b 10fe d7b7 77a2 3d3b ba5e a83a
00000030: f745 323b 203e 523a 80fd 2c3b 15c6 733a
00000040: 1840 0d3b 6d44 ae3b d4d0 cf3b dc00 de3b
00000050: 5cf9 5f39 e905 9e3b 5c54 073c 9d55 fb3b
00000060: c627 653b 3d59 003b 4ae9 883b 8018 8e36
00000070: 679f 89ba 7942 efbb e4ab 213b be3f 63ba
00000080: 58d7 28bb 4a9e 04bb 2052 fe39 2bcc 313b
00000090: 245c 2bba 8c52 053a ce47 983b db9e 2c3c
000000a0: 2ce9 103b 2044 99b8 365c e43a 7c66 b13b
000000b0: e13e ee3b 8dd6 3c3b 14ca 3c3a b875 c439
000000c0: 66be 943b f41f b83b 5abb 6c3b 17b4 e63b
000000d0: a0ac 02b9 4201 61b9 f02b e2b9 b6af a93b
000000e0: 90ed 073c 00ba 5fb7 cd34 953b dc00 6d3c
000000f0: 24f1 133c 4f07 5a3c 22a7 a53c 7c6d aa3c
00000100: d2b0 bc3c 78f8 0e3b 60cb 183c 70bd 6e3c
00000110: e9f7 4b3c 0a74 e93b 12cb 063b a614 193b
00000120: 3b65 223b fb18 cd3a 4c1d 84b9 772c f73a
00000130: eb6a 1e3a 07ab 22bb d651 2c3a 040b ce3b
00000140: b49a 0839 2223 b339 c44d 6c3b f8d6 093c
00000150: 394b 353c 961b a9ba 380c be38 da7f d63a
00000160: 9398 0c3b f04f aa3a cc05 1cb9 700a 7d38
00000170: e223 9f39 824f b83a fb9f b03a c667 193a
00000180: c087 263a 465c f13a a795 b83b 9e93 b93b
00000190: f2b2 383b 7ecf 0d3b 2d2e 0e3b fd1c 8e3b
000001a0: 0dad 5b3c f133 493b 1b74 e03b 368d d73b
000001b0: 5e5d 1c3c b7ab 013c b5f2 d33a d47d ac3b
000001c0: cfc0 b23b af52 b93b 3010 ca3b ac58 993a
000001d0: 94c9 173b 5cac a33b 9abd c83b 5abc ef3b
000001e0: 8e2f 0c3b 8cfe 5a3b 5728 e83b b861 093c
000001f0: 0896 e43b 9212 843b 008a d93b cd6a c63b
00000200: cd69 8b3b 2503 aaba 7a98 9a3b c4fb 073c
00000210: 8083 1d3c d6e8 1f3c fcfd 463b 4c03 8b3b
00000220: d76b 323b a8c2 cd3b 1340 293c 6c4a 313c
00000230: d9be da3a 9e4f a5ba d4ba de39 e68f e53b
00000240: b419 123c a23d 9a3b 8c56 733a d7a8 d13a
00000250: d472 cd3b 6bd8 153c 2cba 2738 13e2 873a
00000260: 71c0 42ba d226 23bb fe25 94bb df25 783a
00000270: 4e38 5fba 3949 15bb 15f3 a8ba ec58 40ba
00000280: dac8 b339 2bbc 00bb 28b6 b0b9 fca2 6b3a
00000290: b59e 4c3b 91bb 2c3a 7de6 12ba f8b2 3239
000002a0: 9c52 063b 0200 2a3b 489c 1c39 a9df ef39
000002b0: 1851 6838 ea5b 1e3b 8d2d 433b 631d 0d3c
000002c0: fc9d 843b cb06 6c3b 88eb e8ba cf91 ae3a
000002d0: 3be4 a43b fcdd 8d3b 6814 323b 408d 133c
000002e0: 9f03 823c babd ce3b f6ad 1b3c 9c1c 503c
000002f0: bd2b 9a3c 3247 af3c da6f 853b 2193 a63b
00000300: 2116 203c 58ad 1f3c 278b 293c bac8 6b3b
00000310: c0c6 c63a 4a4d 9f3b 4a88 f23b b0e6 513c
00000320: 4d9c 793b 2925 bc3b c141 223c f044 2b3c
00000330: 81e9 553c 7895 4e3b fc2a 023c 52c4 783c
00000340: 3c9e 363c e490 d93b f4e8 f13a 7be8 c63a
00000350: 4ff5 733b f2d5 913b 8cac 1f3b 6718 803a
00000360: 4c3a 983a e020 dc3a 16a9 993b b35f dc3b
00000370: e692 383b f2ea 4d3b ed02 d83b fc68 b33b
00000380: 9971 cc3b 3db8 203a 4f65 953a 247b ae3a
00000390: d712 1b3b 892a c9ba b12c d43a 2256 b73a
000003a0: 2348 3a3a dca9 993a 18f8 3439 34a4 bc3a
000003b0: 00e4 f0b6 16c9 70ba f804 a03a b942 1d3b
000003c0: cbaa d23a 6708 98ba a8d8 bd37 744b 883a
000003d0: e047 523b 8be1 103b 006a 1f37 80e6 cab6
000003e0: 5d50 3c3a c3eb eb3a 3593 ea3b 5c50 be3a
000003f0: 0274 413b 8954 033c 2d01 593c eed0 ae3b

momentum_buffer f4 [20]
0.0022401626 0.0032427805 0.00034451095 -0.0029129141 -0.0024359943 0.0017889467 0.0005898756 -0.002941981
0.00049112 0.0011297708 -0.0017031841 0.0027913977 -0.0029880577 0.0026173969 3.2269745e-05 0.002746143
0.00076598494 0.0013236695 0.0034367056 -0.0004227085
00000000: b1cf 123b d484 543b 7a9f b439 97e6 3ebb
00000010: 34a5 1fbb 177b ea3a e2a1 1a3a 40ce 40bb
00000020: 81be 003a d114 943a 603d dfba e2ef 363b
00000030: 4ad3 43bb a288 2b3b 6059 0738 a2f8 333b
00000040: 61cc 483a fa7e ad3a 5a3a 613b f99e ddb9

momentum_buffer f4 [50, 320]
-0.00033906096 -0.00045033183 -0.00039687278 0.00019892435 -0.00012094359 -0.0065485714 -0.010165579 -0.004287825
-0.0017472092 -0.0034661056 -0.004142442 4.0250907e-05 -0.0032292157 -0.0063708136 -0.010250057 -0.0075039836
-0.015213726 -0.030424524 -0.04454328 -0.040718976 -0.019195559 -0.024113193 -0.018791664 -0.019002544
-0.011532834 -0.0091964295 -0.010469882 -0.009034004 -0.022013243 -0.024569016 -0.023772784 -0.012434918
-0.014765428 -0.022129206 -0.026018394 -0.018919703 -0.012263601 -0.010928556 -0.011407438 -0.0023799003
-0.008937751 -0.010219858 -0.00426518 -0.002296716 -0.009273589 -0.006641891 -0.0047698114 0.00032928667
-0.013037302 -0.012323893 -0.014820859 -0.011757202 -0.0012662518 -0.00022257533 -0.008068107 -0.0007601954
-0.0072040623 -0.008144938 -0.0010408608 -0.00021872648 -0.01590163 -0.013086944 -4.7664213e-05 -0.0010670254
0.0006690381 -0.00219802 -0.0013367243 -0.0017310504 -0.0002457592 -0.001006471 -0.012972429 -0.018564537
2.0951353e-05 -0.010075238 -0.018427022 -0.010120693 -0.0005686412 -0.013051095 -0.00990071 -0.000103983795
-0.00713029 -0.0033242488 1.399043e-05 -0.0067370273 -0.0028511935 -0.004189955 -0.0005756995 -0.011836263
-0.004118756 -0.007534716 -0.003831109 -0.011767125 -0.008706532 -0.00039395195 -0.01017124 -0.011819664
-0.008137912 -0.01536561 -0.025208626 -0.030792082 -0.0071031125 -0.015058669 -0.02133244 -0.028456053
-0.024455026 -0.028047387 -0.019415652 -0.014105776 -0.030364636 -0.032556582 -0.020654652 -0.012418528
-0.0018757866 -0.008690222 -0.009524939 -0.0006828294 -0.0056012655 -0.008195817 -0.008189157 -0.00011038955
-0.010293892 -0.008650705 -0.0050785528 0.0010609064 -0.010699647 -0.008086716 -3.7551858e-05 -0.00020900348
-0.0009213609 -0.0015719193 -0.004384798 -0.0044309157 -3.0610012e-05 -0.0023237478 -0.0015777106 -0.0012552632
-0.0044402475 -0.004017628 -0.0015523749 -0.0011528505 -0.0056452327 -0.0041847676 -0.0016165142 -0.0014337596
-0.013815845 -0.0120418975 -0.007899988 -0.009034704 -0.011315009 -0.00016896334 -0.0039578183 -0.003835097
-0.012887657 -0.014788914 -0.011677634 -0.0040672803 -0.008976835 -0.0062527973 -0.001597056 -0.0010135849
0.00016814393 -0.00017757586 -0.002286659 -0.0010193324 -0.00048289515 -0.00052314095 -0.0010989975 -0.001440229
-0.001094719 -0.000529406 -0.0015257549 -0.0013139106 -0.000757708 -0.0026493901 0.0007887356 -0.0002491255
-0.0032713285 -0.0030884405 -0.0016444981 -1.4189191e-08 -0.007049802 -0.0020530594 -0.00067336234 -0.00046987727
-0.010529489 -0.0010488663 -0.00058346556 -0.0001911548 -0.011659925 -0.0064527667 -0.00012463587 -0.00072652474
-0.019687891 -0.015258727 -0.0046582157 -0.0008723716 -0.020476013 -0.0056127002 -0.007800741 -0.0007405152
-0.015813885 -0.01924799 -0.009448112 -0.005712031 -0.02081538 -0.01174588 -0.0019725054 -0.00012306962
-0.00853063 -0.0068676183 -0.0020613328 -0.0034808335 -0.0062351217 0.00021918205 -9.8674245e-05 -0.005903321
-0.0017434891 -0.0023426784 6.140561e-05 -0.00793102 -0.0075055463 -0.00033248225 -0.008007897 -0.011204614
0.00061010756 0.0005986979 0.0010729627 0.00068902515 0.0003827462 0.0004959014 0.00029666768 -8.4385705e-05
-0.0019062753 -0.0026890389 -0.00014977997 -1.4137204e-05 -0.0059511834 -0.007982785 -0.002023452 0.0003540194
0.0013924119 0.00086850254 0.0005593311 -6.582032e-06 -0.0008602167 -0.00029776068 6.53693e-05 0.00087416416
-0.0003668828 -0.0001572266 -0.00021735951 1.68031e-05 -0.0020639151 -0.012527039 -0.008711964 -0.0015794437
00000000: fec3 b1b9 841a ecb9 5d13 d0b9 5996 5039
00000010: 18a3 fdb8 6695 d6bb 878d 26bc e280 8cbb
00000020: 9d02 e5ba 9a27 63bb 52bd 87bb 15d3 2838
00000030: 40a1 53bb 42c2 d0bb dbef 27bc fae3 f5bb
00000040: fe42 79bc da3c f9bc 0473 36bd f1c8 26bd
00000050: 0140 9dbc 0889 c5bc faf0 99bc 39ab 9bbc
00000060: 36f4 3cbc 9fac 16bc de89 2bbc 5c03 14bc
00000070: 1e55 b4bc f644 c9bc 24bf c2bc d4bb 4bbc
00000080: b2ea 71bc 4f48 b5bc 8724 d5bc 7efd 9abc
00000090: 45ed 48bc b00d 33bc 43e6 3abc 1af8 1bbb
000000a0: a56f 12bc 3171 27bc ecc2 8bbb 8084 16bb
000000b0: 40f0 17bc 38a4 d9bb 144c 9cbb 1ca4 ac39
000000c0: 689a 55bc 27ea 49bc 30d3 72bc 48a1 40bc
000000d0: 5cf8 a5ba 1c63 69b9 1830 04bc da47 47ba
000000e0: 0e10 ecbb 5972 05bc 7e6d 88ba f159 65b9
000000f0: 2344 82bc 9f6a 56bc 0feb 47b8 6edb 8bba
00000100: 6362 2f3a a80c 10bb 0635 afba 6ae4 e2ba
00000110: 3ed9 80b9 90eb 83ba 508a 54bc a814 98bc
00000120: b0c0 af37 9c12 25bc 44f4 96bc 43d1 25bc
00000130: dd10 15ba 43d4 55bc 9636 22bc e011 dab8
00000140: 35a5 e9bb a4db 59bb 70b8 6a37 48c2 dcbb
00000150: 17db 3abb e44b 89bb 8aea 16ba e3ec 41bc
00000160: a1f6 86bb c7e5 f6bb 5813 7bbb e6ca 40bc
00000170: d8a5 0ebc 568b ceb9 46a5 26bc 44a7 41bc
00000180: e054 05bc 0ac0 7bbc 5282 cebc ad3f fcbc
00000190: 3ac1 e8bb a3b8 76bc 5fc1 aebc ab1c e9bc
000001a0: e855 c8bc a2c3 e5bc 930d 9fbc ea1b 67bc
000001b0: 42bf f8bc 0d5a 05bd f233 a9bc 1577 4bbc
000001c0: f4dc f5ba 6f61 0ebc 7d0e 1cbc e8ff 32ba
000001d0: d28a b7bb bf47 06bc d02b 06bc f080 e7b8
000001e0: b6a7 28bc b0bb 0dbc fd69 a6bb 1d0e 8b3a
000001f0: 924d 2fbc 257e 04bc 0081 1db8 f227 5bb9
00000200: 7c87 71ba dc08 ceba 5aae 8fbb 3731 91bb
00000210: 4063 00b8 054a 18bb 2fcb ceba a587 a4ba
00000220: 7f7f 91bb 4ea6 83bb 0f79 cbba 3e1b 97ba
00000230: a5fb b8bb 6020 89bb 37e1 d3ba fdec bbba
00000240: db5b 62bc 614b 45bc f46e 01bc 4c06 14bc
00000250: 9662 39bc c02b 31b9 96b0 81bb 4056 7bbb
00000260: c026 53bc 334d 72bc 8c53 3fbc d246 85bb
00000270: 9313 13bc 44e4 ccbb 4f54 d1ba 44da 84ba
00000280: cb4f 3039 a833 3ab9 c6db 15bb 1f9b 85ba
00000290: 172d fdb9 6523 09ba 3d0c 90ba 11c6 bcba
000002a0: ad7c 8fba d6c7 0aba d7fb c7ba 8637 acba
000002b0: eca0 46ba 64a1 2dbb 26c3 4e3a 0f9d 82b9
000002c0: c963 56bb 6f67 4abb 338c d7ba b9c4 73b2
000002d0: 0702 e7bb 9f8c 06bb 9584 30ba dc59 f6b9
000002e0: e183 2cbc 1d7a 89ba b6f3 18ba ba70 48b9
000002f0: 4509 3fbc bb71 d3bb b0b0 02b9 4074 3eba
00000300: 8048 a1bc bdff 79bc f2a3 98bb deaf 64ba
00000310: 50bd a7bc beea b7bb 5c9d ffbb 221f 42ba
00000320: 1f8c 81bc f6ad 9dbc 41cc 1abc fd2b bbbb
00000330: 0485 aabc cb71 40bc 2645 01bb 400c 01b9
00000340: 0ec4 0bbc c209 e1bb 6d17 07bb b21e 64bb
00000350: fe4f ccbb 3cd4 6539 55ef ceb8 a570 c1bb
00000360: c985 e4ba 9f87 19bb e3c6 8038 1cf1 01bc
00000370: 16f1 f5bb 0351 aeb9 8e33 03bc 8f93 37bc
00000380: a0ef 1f3a f0f1 1c3a a7a2 8c3a b29f 343a
00000390: 53ab c839 61ff 013a 108a 9b39 3bf8 b0b8
000003a0: fcdb f9ba 963a 30bb 410e 1db9 d42e 6db7
000003b0: 2502 c3bb 3aca 02bc e49b 04bb ae9b b939
000003c0: 9781 b63a 38ac 633a 13a0 123a 39db dcb6
000003d0: 2a80 61ba c31c 9cb9 e016 8938 2a28 653a
000003e0: 2d5a c0b9 32dd 24b9 00eb 63b9 62f4 8c37
000003f0: c042 07bb 363e 4dbc a0bc 0ebc 5605 cfba

momentum_buffer f4 [50]
-0.0028484808 -0.0023921593 0.0013228905 0.002337472 2.4112087e-05 -0.0022728173 0.00091332337 -0.0049299314
0.0002703382 0.0015563113 0.0057064863 0.00055869506 0.00014293945 0.00412664 -0.0005704112 0.0002960714
0.0021298984 0.0040902635 0.0048641195 -0.005460319 -0.0008494501 0.00045664946 0.00041480066 -0.00413734
-0.0009314933 0.00033752937 0.0018761691 -0.0005562018 -0.00054537045 -0.0008642778 0.0021465048 -0.003287612
0.0014906996 0.0029117197 -0.00265514 0.0023836337 -0.00021873426 0.0046740584 -0.00023777905 -0.0017331995
0.0003306098 0.0011654389 0.0019985219 0.0007329888 -0.0034394995 -0.0014583446 -0.0013277966 -0.00114053
0.0012819888 -0.0010094184
00000000: 94ad 3abb c6c5 1cbb d764 ad3a 4630 193b
00000010: 5044 ca37 8cf3 14bb 186c 6f3a 438b a1bb
00000020: 2ebc 8d39 24fd cb3a 7afd ba3b 6475 123a
00000030: 04e2 1539 c438 873b a687 15ba 083a 9b39
00000040: c495 0b3b 9e07 863b 3163 9f3b 7aec b2bb
00000050: a2ad 5eba 746a ef39 9a79 d939 8692 87bb
00000060: 752f 74ba 6df6 b039 cae9 f53a 12ce 11ba
00000070: 31f7 0eba b490 62ba 60ac 0c3b fa74 57bb
00000080: 9463 c33a 8dd2 3e3b db01 2ebb bd36 1c3b
00000090: 085c 65b9 d828 993b 5454 79b9 862c e3ba
000000a0: b255 ad39 a4c1 983a a2f9 023b 0c26 403a
000000b0: 3a69 61bb ed25 bfba 7609 aeba d67d 95ba
000000c0: 6808 a83a 764e 84ba
