use-cases/radio-astronomy-raw/unet_semantic_segmentation/syn_data/model/trained_CNN1D_test_v0.pt (torch, 560968 bytes, 9 tensors)

conv1.weight f4 [16, 1, 3]
00000000: b18d ef3e 18a0 243e 23ba 26bf 300d 473e
00000010: d4e2 b5bd 0c52 883e 5bb6 c1be 3a58 8c3e
00000020: 74a6 253e b59d f63e 59c8 963c 28e4 e5be
00000030: 44b4 0e3f 86b6 133f 99d4 053f 6a27 51be
00000040: 4f14 a2bc 3ed9 7d3e c926 ebbc 81b4 523e
00000050: 515b fcbe 66b5 0fbd d198 143f 4826 d13e
00000060: 8889 e0bd b5f4 ffbe 200c 733d ab05 b1be
00000070: 632f 94bd 0836 b53e b2e8 f23e ad5e 09bf
00000080: eb26 a33c 4ef1 f53d 574a aebd 9a8a 9e3e
00000090: a7aa 073f 6dc2 3fbd c60f ba3e 808e c93d
000000a0: 5afa 083f 6cdb c6bd d424 b5be 9fe8 94be
000000b0: ffa1 a93d f628 fe3d 20dd 66be 7ea5 d33d
0.4678779 0.16076696 -0.6512777 0.19438624 -0.08881155 0.26625097 -0.3783444 0.27411062
0.16176778 0.48167196 0.01840608 -0.44900632 0.55743814 0.57700384 0.52277523 -0.20425192
-0.019785075 0.24789903 -0.028705018 0.2057667 -0.4928842 -0.035085104 0.5804568 0.4084952
-0.10963732 -0.49991384 0.059337735 -0.34574637 -0.07235601 0.35392785 0.47443157 -0.5366009
0.019916018 0.12008916 -0.08510273 0.3096512 0.5299477 -0.04681628 0.3634016 0.09841633
0.53507006 -0.0970982 -0.3537966 -0.29083726 0.082828514 0.124101564 -0.2254529 0.103342995

conv1.bias f4 [16]
00000000: 8a22 d63e 0fca d1be 0537 a4be 4409 a13e
00000010: bfb9 8fbe f69d 5d3b 8132 563e 9256 4a3e
00000020: a4f7 f2bd 5d1c 5d3d 73ac 313e 5d58 133f
00000030: 75ee c23e 3560 0cbf 9282 bf3e 543f dc3e
0.41823226 -0.4097447 -0.32073227 0.31452382 -0.280714 0.0033816076 0.20917703 0.19759586
-0.1186364 0.053982127 0.1735094 0.57556707 0.38072553 -0.548343 0.37404305 0.43017066

conv2.weight f4 [32, 16, 3]
00000000: 1b01 1bbe 77c2 913d 10cd 02be 1a53 c9bd
00000010: f59b 0abe 3c3d d13d 1861 c4bc 0ced ef3d
00000020: 320d 06bd 0fa5 9abd 2c26 4e3d 6988 7d3d
00000030: 16c0 413e d52f f93c 6b07 3bbd 9abd 303e
00000040: a526 d83c 46a3 363e 872c 82be 0a8a 08be
00000050: d399 92be 63a3 9c3d 2c30 1e3e 0e13 c63d
00000060: b81d 683d 0093 7b3d ba4b 00be fd23 44bd
00000070: 747e dc3d 27d9 a73d 2e9f ab3c 5a4f 9e3d
00000080: 45b9 b2bd a967 febd 08ab a03d 34ed 223d
00000090: eb48 64bd 20dc 6f3d ffc7 213e 508d e7bc
000000a0: b828 c4bd 106f 433d e833 5abe d0ef 38be
000000b0: 30ea 82be 7920 2cbe 62fa 823d 7efe f6bc
000000c0: 31fd 12be c42a 283c 8ab6 723d c35a d8bd
000000d0: cef4 c23d 7cbe 0dbe 8e6e 0a3e a273 c2bd
000000e0: f4d0 bebd 8fbe 58bd 8bc1 adbd a419 a8bc
000000f0: e392 573d 9b47 203e 59fd 9e3d 6fa7 003e
00000100: 72a7 7abc 31bd 00be 1966 a1be 7c6d 9ebd
00000110: c50a 3fbe 3153 2ebd 977f b13d faec 80bd
00000120: 24c7 033e da40 d23d 14be 873d 06d7 cf3d
00000130: 5254 e53d 37de 0abe 665a 25be d027 933d
00000140: 8268 60bd 2f2b f2bd 217d 29bd 1c4d aa3d
00000150: 4016 113e 7566 c1bd 73ff 553c e6fc 033e
00000160: 84b4 983d ba4c dabd 8541 80be ce25 3fbe
00000170: d5c7 54be 21a2 e6ba 4a89 bb3c 58ea d63d
00000180: fb38 7bbd 06e1 d3bd 3ae6 f3bd 007e 94ba
00000190: 50bd d73c 9880 393d ce5e 0fbe fa19 0fbd
000001a0: 2b12 12be eb50 c43d 034b 3d3d df29 933b
000001b0: 4da4 e03d 853d b2bd 1d43 9d3c e7ea 0d3e
000001c0: ddca 723d a1de 72bc 0521 9abc 1e0c 0abb
000001d0: fad0 213d 8620 a73c 31b8 6b3d b3df 98bc
000001e0: 323f c93d 0865 963c 50b6 bbbc 6a4f e5bd
000001f0: fdf4 55bd 9a88 39bc b069 22bd a2e5 b83d
00000200: 30ba a53d a736 013e 518b ee3d 4dea 713d
00000210: 8d07 13be c6e4 12be 6db0 373d 34ee d5bd
00000220: 5bfd 06be 28b8 8a3d 2476 30be 880d aabd
00000230: 5ce8 aabd 7345 763d ea6e edbd 248a b63d
00000240: e638 093e f6f5 fcbd b483 09bc 3c26 ecbc
00000250: 8c71 b8bd 009e f03a 1059 d43d 8d28 8fbd
00000260: 003f 723b 136f 45bd 5c8b e43d 9dff 033e
00000270: c922 383d a186 02be afce f13c 1ea7 0c3e
00000280: 4ad5 aabd bbdd 81bd 0a85 b4bc 6c95 7dbd
00000290: 58b2 04bc 72a3 aa3d 5e22 d93c a849 f33d
000002a0: 3897 ab3c b864 293d 7463 3e3d 5566 aebd
000002b0: 6960 0c3e c031 a2bd a066 f83d 40d1 3b3d
000002c0: efb2 bdbd f8d7 1b3d b115 babd 02b4 863d
000002d0: 5bc5 18be 76d0 e3bd 98f9 8fbd 0e22 ccbd
000002e0: 88da 933d 86e5 0a3e e1f3 93bd 4751 c23d
000002f0: 8011 8c3c 6196 483c d4ca b43d 6799 723c
00000300: 072d 163d 50f9 9a3d f2f8 13be 58f8 ee3d
00000310: b464 aa3d 4c16 a93d 1244 9e3d 904a c7bc
00000320: 083c 803c 3187 38bd 3cd6 6fbc 9233 48bd
00000330: 4a9b f9bb f617 043e 0bb3 a03b a509 fb3d
00000340: 63c4 c7bd 8f09 11be f7ed 94bd 894d 19be
00000350: a87b 21be e805 fbbd 4311 9e3d 10f1 033e
00000360: 102a 3c3c 1fbc 00be b404 053d 7c09 c13d
00000370: ce7e ba3d 0b49 71bd 9f97 8abd 8411 8fbd
00000380: 31d9 583d 0550 1dbd 8641 e0bd 0322 a63d
00000390: a600 2bbd e15c eebd 8610 273d dcc1 dd3d
000003a0: 084b cf3c 70e1 083d 89fd fbbd 4d20 17be
000003b0: 482b 9bbe a89c c3bd 3994 14be 1c73 2bbd
000003c0: a407 37bd 0b95 983d ee10 c83d 84a4 08bd
000003d0: 560e c9bd 7a08 dcbd c8a1 10bd 9408 a5bc
000003e0: 98d6 ce3d 4774 e23d c6d3 11be 8b7f f4bd
000003f0: 6dcb 04be d1fa eb3d 63de bb3d 4693 133e
-0.1513714 0.07117169 -0.12773538 -0.098303035 -0.13536055 0.10216758 -0.02397208 0.11715135
-0.032727428 -0.07551014 0.050329372 0.06189767 0.18920931 0.030418316 -0.04566137 0.17259827
0.026385615 0.17835721 -0.25424597 -0.13333908 -0.28632984 0.07648351 0.15448064 0.09671603
0.056668967 0.061419487 -0.12528887 -0.047885884 0.107663065 0.081957154 0.020949926 0.07729979
-0.087267436 -0.12422115 0.078451216 0.039776996 -0.055733602 0.058559537 0.15798949 -0.028265625
-0.09578079 0.04771334 -0.21308863 -0.18060231 -0.25569296 -0.16809262 0.06395413 -0.030150648
-0.14354397 0.010264102 0.059256114 -0.105641864 0.09519349 -0.13842195 0.13518736 -0.094947115
-0.093171984 -0.052916106 -0.08484181 -0.020520039 0.052630316 0.15652315 0.07763166 0.12563871
-0.015298711 -0.12572171 -0.31523207 -0.07735726 -0.18656452 -0.042559806 0.08666914 -0.062952
0.12868935 0.10266276 0.066280514 0.10148434 0.111977234 -0.1356133 -0.16147766 0.07185328
-0.054787166 -0.11824643 -0.041379098 0.08315489 0.14168644 -0.0944337 0.013061392 0.12889442
0.074563056 -0.10659166 -0.25049987 -0.18666765 -0.20779355 -0.0017595926 0.022892613 0.10493916
-0.061333638 -0.10345654 -0.119091466 -0.0011329055 0.026335388 0.045288652 -0.14001009 -0.034936883
-0.14264743 0.095857464 0.046214115 0.0044910754 0.10968838 -0.0870314 0.019197041 0.1385914
0.059275497 -0.014823587 -0.018814573 -0.0021064351 0.039505936 0.02040125 0.057548705 -0.018661356
0.09826507 0.018358722 -0.022914082 -0.11196788 -0.052235592 -0.011324072 -0.039651573 0.09028174
0.08092153 0.12618504 0.11647666 0.059061337 -0.14358349 -0.14345083 0.044845987 -0.10445824
-0.13182585 0.06773406 -0.17232567 -0.08303362 -0.083451 0.060124826 -0.11593421 0.08913067
0.13400611 -0.12351601 -0.008393217 -0.028826825 -0.09006032 0.0018357635 0.1036855 -0.06990156
0.003696382 -0.04820163 0.11159393 0.12890477 0.04495505 -0.1274667 0.0295175 0.13735625
-0.08341463 -0.0634112 -0.022036094 -0.061910078 -0.008099161 0.08331956 0.026505645 0.11879283
0.02094613 0.04135582 0.046481565 -0.08515612 0.13708653 -0.07919645 0.12128949 0.045853853
-0.092626445 0.03804776 -0.090861686 0.065773025 -0.14919035 -0.11123745 -0.07030028 -0.09967433
0.07219416 0.13564119 -0.072242506 0.09488159 0.017098188 0.012242884 0.08827749 0.014807082
0.036664035 0.07567084 -0.14450434 0.116684616 0.08319989 0.08256206 0.07727827 -0.024327546
0.015653625 -0.045050804 -0.01463848 -0.048877306 -0.007617389 0.12899765 0.004904156 0.12257699
-0.09754255 -0.14163803 -0.07271951 -0.14970984 -0.15769827 -0.12256986 0.07718136 0.12884927
0.011484638 -0.12571763 0.03247519 0.09425637 0.09106217 -0.05890755 -0.06767201 -0.06985763
0.052941505 -0.03840639 -0.109499976 0.08111956 -0.041748665 -0.11638809 0.040787242 0.10827991
0.025304332 0.03341812 -0.12304217 -0.14758416 -0.30306458 -0.09551364 -0.14509667 -0.041857824
-0.04468502 0.07450303 0.09768854 -0.03336002 -0.098171875 -0.10743804 -0.035310537 -0.020145692
0.10099524 0.110573344 -0.14240941 -0.119383894 -0.12968226 0.11522449 0.09173276 0.14411649

conv2.bias f4 [32]
00000000: 8123 e3bd f678 9fbd 0f47 9f3d 3aa2 fcbd
00000010: 8c1d 463b 4387 0bbd d9b3 8fbd 2855 dd3c
00000020: 20c5 a4bb 0090 923c f1ce a8bd 032e 9cbd
00000030: 23c1 bd3d 55ef 1f3d ead8 db3d 3b93 3ebc
00000040: fcd7 b43d da65 2fbc a299 943d b603 b03d
00000050: 6abc 4abd bfd8 4dbc ced8 e4bd 4e6b 073d
00000060: 6627 ddbd b5a6 08bd 9bc1 9ebd 3d49 ca3b
00000070: 510d 973d 1b3a 533d 639a b7bd 079d 8cbd
-0.11090756 -0.07786743 0.07777225 -0.1233563 0.0030230014 -0.034064543 -0.07016725 0.027018145
-0.005028382 0.01789093 -0.08242596 -0.076259635 0.092653535 0.039046604 0.107347324 -0.011631782
0.08830258 -0.010705436 0.07255866 0.08594458 -0.049496092 -0.012563883 -0.11174165 0.033061318
-0.1079853 -0.03336211 -0.07751771 0.0061732815 0.07375587 0.051569086 -0.08964994 -0.06865888

conv3.weight f4 [64, 32, 3]
00000000: d49e 253d 66d2 cb3d b0f2 8ebd 208b debb
00000010: d4be edbc 60c6 133c f027 aebc a6a5 b1bd
00000020: 8ae1 bb3d c09b 27bb 5896 793c e837 543d
00000030: 4cf4 703d 809d 89bc 7c68 dcbc 647b 673d
00000040: b8d9 933c 3a27 b1bd cc6d 613d af8d 78bd
00000050: 4eb5 c73d b4af 43bd 8468 59bd 888f aabc
00000060: f7b2 77bd 10ab 13bd a205 0abd 24c6 ab3d
00000070: d059 853d dcbc ab3d 4917 3fbd fcd4 363d
00000080: fcf4 c73d c092 e8bc 60e2 0a3b 9930 babd
00000090: 30a1 67bc aa5a 46bd 73cf 2fbd b054 1f3c
000000a0: 3013 7c3d 7050 843b bcb9 693d e2d6 43bd
000000b0: 94ab 9ebc 906e 86bd e4b2 93bc da92 aabd
000000c0: 4dcf 99bd d041 2a3c dc2e c3bc 3278 cf3d
000000d0: ce84 1dbd 9446 143d 88aa 8b3d c0a4 253c
000000e0: 1076 773d b079 803b 7001 96bb d885 16bc
000000f0: a61f acbd 1267 9a3d a0da 6ebc 4c20 c0bc
00000100: f012 02bd a56a a8bd d8c7 a5bd 82d2 47bd
00000110: bc77 b8bd e054 65bc 5c5f c03d 6092 a03d
00000120: f7c6 8fbd ae48 18bd 5c6c bbbc 10c2 9cbc
00000130: fcbd a33c ba08 98bd 5e98 8c3d b8ad abbc
00000140: 2108 c8bd 00d0 763a 68e7 aa3d 80fd 3cba
00000150: 7e25 bcbd 88b3 2bbc 4277 a03d 142f 55bd
00000160: 0030 4db8 a610 d0bd 242e 91bc 0cca 09bd
00000170: 7e51 c4bd 4c2d a33d a06c 623c e46e 933d
00000180: 72ba 83bd 7d25 93bd e02a 173c 309c c93b
00000190: d954 6fbd b4c9 8a3d e4f0 cabc c9a8 b6bd
000001a0: 3524 35bd 8079 543a 9c71 263d c445 853c
000001b0: 80c6 6d3d 68aa 783d 30c5 bd3d c8f3 e43c
000001c0: 5e2c b4bd 1845 ad3d f436 c83d dceb 743d
000001d0: b5c1 22bd e8ff 7b3c 9390 97bd 0803 013c
000001e0: aab5 be3d 2ad1 8abd 28a7 de3c 4884 283d
000001f0: 6ea7 8abd 8f7c b0bd 004d ce3a 7c93 edbc
00000200: 067e 853d b467 a63d a093 bb3d b8d5 973d
00000210: acf6 943d 30c3 aa3d f0a5 cabb 347a bcbd
00000220: ff0e dfbc 9845 c73c e0ef cc3c 47c4 f4bc
00000230: 006c d43a 7cdf 093d 04e9 4a3d 8476 3a3d
00000240: 24de aa3d a2aa bcbd aedb cb3d 6084 28bd
00000250: 52d3 13bd e065 ed3c a830 afbc 6a7f 313d
00000260: 6475 233d e0a3 a2bd 91a9 b3bd 87a7 62bd
00000270: c507 3fbd 8454 1d3d 703f ae3d 1800 95bd
00000280: 441d 8fbc 099f 0f3d 90de cdbc de89 59bd
00000290: 700b 233d f439 013d a8eb 10bd 4a6d 9a3d
000002a0: 1878 9b3d 108d bd3d afd9 ccbd 6396 b5bd
000002b0: 191e c6bc 9919 793d bc2a b53d 8e71 c63d
000002c0: e394 5abd 5813 dabc dca4 a43d 6dbe 05bd
000002d0: a940 b3bd 468c c3bd 144a b5bd 4abd 35bd
000002e0: 50ca b33d eada ac3d 3a59 20bd c367 b93d
000002f0: c1eb d3bb 982c b2bc dc0c 863d 264c b9bd
00000300: d5b0 61bd 7d03 8e3d 1ba2 60bd 882f 8abd
00000310: 7eaf 34be 915e 5dbe 4980 693c 79c8 863d
00000320: 92ff 803d 77ad a33d 5ec2 b33c 1622 6bbb
00000330: 25b4 16be ae10 9c3c e618 803d 9686 b33d
00000340: 2071 bd3d 39f4 6bbd 8245 623c eb41 cc3d
00000350: 386e 1f3c e36c d43c 2e34 86bd a0b5 bcbd
00000360: 5e30 cdbd e067 1c3c ffa8 cdbd 6adf a5bd
00000370: 7cdd 0ebd 883e b7bd 9d6f 0cbd 7822 003c
00000380: 66be 993b 94c2 89bc 84e3 b6bd d0ff bb3d
00000390: c84e 52bd 5f5c b9bc e3e1 87bd 2b24 b6bd
000003a0: 32ae 64bd a301 9e3c d4d7 d23d ea44 bc3c
000003b0: b950 a6bd cdd1 83bd b427 6a3d ff2b a8bd
000003c0: 9288 abbd af74 8dbd 1095 d0bb ec05 bdbd
000003d0: eff9 01bd e21c 48be 39d8 e4bd 7d3b d9bb
000003e0: 14ba 833d 46a7 c43d 311e 823d 17e1 cabd
000003f0: d0fe b13d e09c 653b 2818 94bc b8c0 5b3d
0.040434673 0.0995224 -0.06979883 -0.0067914873 -0.029021658 0.009019464 -0.021259278 -0.08674173
0.091738775 -0.0025575012 0.015233599 0.05181113 0.05882673 -0.016798735 -0.02690529 0.05651416
0.018048152 -0.0865006 0.05503635 -0.060681995 0.09751378 -0.047774985 -0.05307819 -0.020820394
-0.06047341 -0.03605181 -0.033696778 0.08387402 0.06511271 0.083856314 -0.046653066 0.04463671
0.09763524 -0.028390288 0.002119206 -0.090913005 -0.014137551 -0.048426308 -0.04292245 0.009724781
0.061541736 0.004037909 0.057061896 -0.04781235 -0.019368924 -0.06564057 -0.018029638 -0.08328791
-0.075102426 0.0103916675 -0.023826055 0.10130347 -0.03845673 0.03620012 0.06819636 0.01011008
0.060415328 0.0039207563 -0.004577808 -0.009187184 -0.08404474 0.0753919 -0.014578491 -0.0234529
-0.03175634 -0.08223466 -0.08094758 -0.04878474 -0.090072125 -0.013997287 0.09393188 0.07840419
-0.070203714 -0.037178688 -0.022878818 -0.019135505 0.019988053 -0.074235395 0.06864999 -0.020956859
-0.097671755 0.00094151497 0.083449185 -0.00072094053 -0.091868386 -0.010479815 0.078352466 -0.05204685
-4.8920512e-05 -0.101594254 -0.017722197 -0.033639953 -0.09585856 0.07967624 0.0138198435 0.07198885
-0.06432046 -0.07184885 0.009226531 0.006152652 -0.058430526 0.06776753 -0.024773069 -0.08918912
-0.044223983 0.0008105263 0.04063569 0.016268618 0.058050632 0.060709387 0.09266126 0.027948275
-0.08797525 0.08460444 0.097761065 0.059795246 -0.039735515 0.015380837 -0.07400622 0.007874258
0.093119934 -0.06778176 0.027179316 0.04114178 -0.06770216 -0.08617508 0.00157395 -0.02900099
0.06518178 0.081252486 0.091590166 0.074138105 0.072736114 0.0833801 -0.006184332 -0.09202996
-0.02722883 0.024325177 0.025016725 -0.029878749 0.0016206503 0.033660397 0.049538627 0.04552318
0.08343151 -0.09212233 0.0995401 -0.041141868 -0.036090203 0.028979242 -0.021385506 0.043334402
0.039906874 -0.07941413 -0.087725766 -0.055335548 -0.04663827 0.03841068 0.085081935 -0.072754085
-0.01747001 0.035063777 -0.02513054 -0.053109996 0.03980583 0.03154941 -0.03538099 0.075403765
0.075912654 0.09255421 -0.10002457 -0.088665746 -0.024184274 0.060815427 0.088460416 0.096896276
-0.053364646 -0.026620552 0.08039257 -0.032652307 -0.08752567 -0.095482394 -0.0885202 -0.044369973
0.087788224 0.08440192 -0.039147593 0.09052994 -0.006467313 -0.02174978 0.065454215 -0.09047727
-0.05510028 0.06934259 -0.054842096 -0.06747347 -0.1764507 -0.21618105 0.014251777 0.06581206
0.06298746 0.0799207 0.021943267 -0.003587847 -0.14717157 0.019050922 0.06254749 0.087659046
0.092500925 -0.057605956 0.013810517 0.0997351 0.009730868 0.025930827 -0.06552921 -0.0921433
-0.10018991 0.00954625 -0.10041999 -0.080992535 -0.034879193 -0.08947474 -0.03428613 0.007820718
0.0046918867 -0.016816415 -0.08930114 0.09179652 -0.051344663 -0.022627054 -0.06634881 -0.08893617
-0.055830188 0.01928789 0.10295072 0.02298208 -0.081208654 -0.06436501 0.05716677 -0.082115166
-0.08375658 -0.06907021 -0.006365426 -0.09229645 -0.031732496 -0.19542268 -0.11174054 -0.006629406
0.06431976 0.096022174 0.06353415 -0.09906214 0.0869118 0.0035036132 -0.018077925 0.053650588

conv3.bias f4 [64]
00000000: 275f 87bd 1ab8 87bc b271 b73c 63f2 28bd
00000010: e25b afbd 6867 d93c 7345 8fbd cbf6 8f3c
00000020: 09d7 a23d 003e c53d 1bba 773d 60eb 4e3b
00000030: ba56 f4bc 546c 8d3d 0796 293d 95cc d93d
00000040: 388f 87bd 45c0 9cbd f282 8dbd e482 0ebd
00000050: c44d 843d e35a b73d 7ca1 d83b eb8d 5e3d
00000060: d9f1 e63c 6510 53bd 7fd0 013d f72e 8e3d
00000070: c752 ae3d 2852 b63d 3965 cd3c 0568 dabd
00000080: 7e26 ea3d 2ae5 82bd c64b 3c3d 61c1 913d
00000090: f235 103e fdd3 503d 1d7e ae3c b3f5 923c
000000a0: c432 8a3d 04c4 fa3c a1e4 863d e6ba d23c
000000b0: 3ffe 313c 58ad 0f3d 8824 643d 4935 5abd
000000c0: cc98 2abd 6338 c13d 3514 9bbc dd46 2bbd
000000d0: bb57 d3bd 91de b1bd 9882 52bd 74ec c7bc
000000e0: 52df be3d ab42 52bc 952b a83d 4e91 3fbd
000000f0: 1afd a93d cc15 37bc 5c2f d8bc 9601 55bd
-0.06609946 -0.016567279 0.022393081 -0.041246783 -0.08562447 0.026538566 -0.06995668 0.017573735
0.07951171 0.09630966 0.06048022 0.00315734 -0.02982651 0.069054276 0.041402843 0.10634724
-0.06619114 -0.0765386 -0.069097415 -0.034792796 0.06460145 0.08952882 0.0066110473 0.054334562
0.028191494 -0.051529307 0.031692978 0.069425516 0.08511882 0.08902389 0.02507268 -0.106643714
0.11433123 -0.06391366 0.0459707 0.07116962 0.14083079 0.050983418 0.02130037 0.017939424
0.06747964 0.030611046 0.06586576 0.025723886 0.01086384 0.035077423 0.0556989 -0.053273473
-0.041649625 0.09434583 -0.018930534 -0.041815627 -0.10319468 -0.08685029 -0.051394075 -0.024404742
0.09319939 -0.012833278 0.082114376 -0.046769433 0.083002284 -0.01117463 -0.02638977 -0.052003466

fc1.weight f4 [128, 1024]
00000000: 4003 bb3c a09f 453c 2079 80bc 8272 eebc
00000010: 9090 d7bb 8c4f a43c 58e8 ba3b f478 f03c
00000020: 7092 1fbc 2234 a13c c0f3 9f3a 345e be3c
00000030: f40a babc aa1c e93c f8a4 60bc e0df f3bc
00000040: e459 40bc ba45 f2bc defe b63c b887 ff3b
00000050: 40ba 84ba 4ace da3c 5c95 a83c 9ea4 d1bc
00000060: 8e01 9cbc 8ca9 ac3c e010 eabc 6892 ccbc
00000070: 14b4 8a3c 608d 8c3a f8b0 9dbc b416 ba3c
00000080: bab6 babc 38a7 ae3c 56dd ddbc 9c0c 11bc
00000090: 945a a0bc 100e debb fa1a d2bc d6ce 47bc
000000a0: 9b96 a8bb a525 f0bb bd02 803c 53bf 09ba
000000b0: 9c37 0abd f6f6 daba 81b5 06bd 8c52 efbc
000000c0: 5c74 a9bc c01a 1a3b 0e8d 97bc 40bf 12bb
000000d0: 28a6 163c 0401 febc 04a8 d8bc 583e fa3b
000000e0: 98ff 1d3c 000d 43b9 5ced 96bc a44c 3b3c
000000f0: 3c95 193c 80d8 56bc b05e fe3c fcd5 2f3c
00000100: fc7e ab3c 288d e33b 4007 203c 5003 a13b
00000110: 8a46 f9bc 5000 64bc 14e6 7ebc 6281 843c
00000120: e64b d8bc 849b 4ebc 40f7 3fbc 8c08 90bc
00000130: b86a 7ebc 804a f7ba 2079 4bbc 5e9f 86bc
00000140: d622 9ebc a66a ebbc a809 dbbc 9eb8 b63c
00000150: 82e6 9f3c c88b dabb b220 b23c 48ea ecbb
00000160: 10b1 273c eb2f 15bd e125 413c 911d 0dbb
00000170: c58d b1bc 9930 d4bc b1e7 f5bb c0ec 6dbc
00000180: 6070 25bb bccc 9d3c d6f3 d13c e4cf 5f3c
00000190: 6ebb e9bc 78af 163c cc86 423c 3012 92bc
000001a0: f05d e83c 7264 863c bc6f 063c 74c3 40bc
000001b0: fa12 e3bc 9071 fdbb 48c7 fb3c dc34 9cbc
000001c0: acc6 d9bc 40e5 e23b 1097 a13c 6861 92bc
000001d0: 9888 d53c 907b 053b c462 32bc 004c 31bc
000001e0: 1087 febb 44ce 163c f8d2 d8bb 9ec3 fa3c
000001f0: 32f4 e7bc 7abb 993c f44c 5abc 66cc 82bc
00000200: 002a 6f3c 8a2e febc 5818 cbbc 90e6 dcbc
00000210: 003b 94bc f0ef 7fbb c8db a33b 4e99 5cbc
00000220: 831b 16bc e8c8 dd3a a966 103c b26d fe3b
00000230: 117f 20bd dc0a 2e3c 0f61 cdbc 2393 1cbc
00000240: 62f5 b0bc 9c0a 27bc 806f 12bc 8895 b9bb
00000250: 3a7f debc a0f6 0fbc a0bc 7e3b 07e8 783c
00000260: 52ab 23bd c055 2abc 4b3a 87bb 465e 07bd
00000270: f503 02bc 906b 8b3c 645e aebc 1081 e2bb
00000280: d455 7ebc 9c02 99bc 0046 c03c baa5 d03c
00000290: 166e a53c 9ce8 ea3c 5a7e f13c 2c97 f83c
000002a0: 1b7d 09bc f921 a93b a1ff 02bd 0af6 3bbc
000002b0: d107 cdbc 3bf3 f53b 8621 853c e477 8d3c
000002c0: 9e5d ae3c 8cc7 733c 1022 8f3c cebd ef3c
000002d0: ac63 f939 19d4 5fbc 18ab 943c 9e84 11bd
000002e0: fe6f 32bd 4443 4dbc 0b3c 7e3c efb3 33bb
000002f0: 8d2c 47bb ddc2 ebba dbf4 113c 97d7 31bc
00000300: 10d5 d7bb 5846 2f3c 50a2 b33b 84bb 0ebc
00000310: 92b9 c8bc a611 b0bc 5ecd babc a035 aaba
00000320: 360c c03c 68d2 f5bc 2ef7 a5bc a8a8 d23b
00000330: 1429 553c d617 893c c0a4 f93b c065 933c
00000340: 80a9 b73a c83a 893b 927a b1bc decc d13c
00000350: 74ba 6e3c 8485 1fbc b41a b03c 82ef acbc
00000360: 0017 88bc 88f5 bdbb 1be9 68bc 9f7c 28bc
00000370: aff2 18bd 9a86 62bc 70bb 86bb 64ed bfbc
00000380: 7dff 01bc 9678 34bd 11be 0d3c 1522 1cbc
00000390: a735 24bd 8c5a 823c dbaf 1dbd 98f6 0b3c
000003a0: 6b8a 00bd 4731 bcbc 3194 443c bc41 9a3b
000003b0: dcef f2ba fca0 fbbc 71c3 943b 463d 32bc
000003c0: 1486 65bc e27f f9bc a4ef 723c f069 a6bc
000003d0: d430 14bc 40d4 c9bc 7ebd efbc 814d ccbb
000003e0: dc22 b33b e072 24bd 645a 893b 5ddc 753b
000003f0: b506 bdbb a720 b53b 6c0a 0e3c de47 fcbc
0.022828698 0.012061983 -0.015682757 -0.029107336 -0.0065785125 0.020057462 0.005703967 0.02935455
-0.009739503 0.01967818 0.001220338 0.023238279 -0.022710301 0.02845605 -0.013711207 -0.029769838
-0.011740182 -0.029574264 0.022338327 0.0077981614 -0.0010126308 0.026709694 0.020579033 -0.02559119
-0.01904371 0.02107694 -0.0285725 -0.024972156 0.016931571 0.0010723285 -0.019249424 0.022715904
-0.022792209 0.02131997 -0.02708308 -0.008853104 -0.019574441 -0.0067765787 -0.025647629 -0.01219531
-0.0051449067 -0.0073287063 0.015626306 -0.0005254645 -0.03374444 -0.001670568 -0.03288794 -0.029214166
-0.020685367 0.002351448 -0.018499877 -0.0022391826 0.009194888 -0.031006344 -0.026447304 0.0076368265
0.009643458 -0.00018601492 -0.018423729 0.011431847 0.009373959 -0.013113141 0.03105101 0.01073217
0.020934574 0.0069443174 0.009767354 0.004913725 -0.030429143 -0.01391609 -0.015557785 0.016174976
-0.026403379 -0.01261032 -0.011716664 -0.0175822 -0.015528373 -0.0018866807 -0.012419015 -0.016433414
-0.01930372 -0.028737377 -0.026738003 0.02230483 0.019519094 -0.0066694953 0.021744106 -0.007230077
0.010235086 -0.03642265 0.011788816 -0.0021532516 -0.021674046 -0.02590208 -0.0075044264 -0.014521778
-0.0025243983 0.019262664 0.025628965 0.013660405 -0.028531756 0.009197108 0.011872958 -0.017830938
0.028365105 0.016405318 0.0082053505 -0.01176535 -0.02771901 -0.007734485 0.030734673 -0.019068174
-0.026583992 0.0069243014 0.019725353 -0.017868713 0.02606611 0.0020367838 -0.010887805 -0.0108213425
-0.0077675655 0.009204451 -0.0066169463 0.030610856 -0.028314684 0.018766154 -0.013324011 -0.015966605
0.014597416 -0.03102805 -0.024791881 -0.02696541 -0.01809454 -0.0039052926 0.005000565 -0.013464285
-0.009161833 0.0016920837 0.008813539 0.0077645415 -0.03918368 0.010622706 -0.025070695 -0.0095565645
-0.021601383 -0.010195401 -0.0089377165 -0.0056635775 -0.027160276 -0.008786827 0.0038869753 0.015192038
-0.039958306 -0.010396421 -0.004126822 -0.03304889 -0.007935514 0.017019063 -0.021285243 -0.006912358
-0.015523393 -0.018678002 0.023470879 0.02546965 0.020194095 0.02867537 0.029479194 0.030345522
-0.008391644 0.0051615206 -0.031982068 -0.0114722345 -0.025028141 0.007505802 0.016251337 0.017269082
0.021284875 0.014879119 0.017472297 0.02926531 0.00047567242 -0.013661408 0.01814799 -0.035526864
-0.043563835 -0.012528244 0.015517245 -0.0027420481 -0.0030391545 -0.0017987151 0.008908476 -0.010854623
-0.0065866783 0.010697924 0.0054819956 -0.008711699 -0.02450255 -0.02149279 -0.022803005 -0.0012985952
0.023443323 -0.030007556 -0.020259466 0.006428797 0.013010282 0.016734999 0.0076185167 0.017992854
0.0014012307 0.0041879155 -0.021664891 0.025610384 0.014570821 -0.009736422 0.021497108 -0.0211103
-0.01661253 -0.005797092 -0.014215733 -0.010283618 -0.037340816 -0.013826037 -0.0041116998 -0.023428626
-0.007934448 -0.044060312 0.008651272 -0.00952961 -0.04009023 0.015912317 -0.038497787 0.008542679
-0.031382006 -0.022972716 0.011998222 0.004707543 -0.0018534618 -0.030716412 0.0045399 -0.010878867
-0.0140090175 -0.030456487 0.014827643 -0.020314187 -0.009044845 -0.024637341 -0.029265162 -0.006234825
0.005466802 -0.040148616 0.0041916836 0.003751538 -0.005768622 0.005527574 0.008669477 -0.030795988

fc1.bias f4 [128]
00000000: 2599 ed3b acfd d0bc 599f a53c 4db6 abbb
00000010: 3d18 c93c af84 c03c 363d 2a3b f991 01bd
00000020: 086c 103c 15fe af3b b023 3f3c 7d09 2a3d
00000030: 9432 973c de82 0dbd d333 c83c 375c 13bd
00000040: 8864 d4bb 9ffc e0ba 549c 2fba 31aa d03b
00000050: 2670 c8bc e043 cabc 853d 823d 1d59 d53c
00000060: aeda fc3c 1c29 06bd e7bb 6b3c fd82 953c
00000070: 8af6 8f3c e165 853c b3b9 ca38 a04a a4bc
00000080: d79f 2ebc 6bca 1abc b8c2 b0bc 2f54 04bc
00000090: 771c 063d 8f19 9bbc 5453 f13c 6c27 68bb
000000a0: 4e11 cbbc 395e c9bc 389c 233d ff63 9b3c
000000b0: ade8 6a3c dfd6 37bd b055 e63c 7d1b 7f3c
000000c0: a6cd 5dbc 5bc6 89bc ff8e 96bc 2aff 903c
000000d0: fffe 633d 842f ca3b 0520 c43c 1cbd 1e3d
000000e0: 3250 27bd 3f36 cfbc d91a 45ba 8b75 223d
000000f0: e05b e33a edd0 c3bc c3e2 96bc 19e6 10bb
00000100: c894 b1bb cace c9bb 74e6 5bbb 6164 81bb
00000110: 4889 20bd 5c42 ed3b 8d7c 623c ee5d d2bc
00000120: 8d86 80bc cc08 32bc 369d 47bb b652 023d
00000130: 9855 cfbb 47d3 623d 1928 c4b6 35ee ac3b
00000140: 9847 e83b 0606 c9bb 878e 3c3c 21cc 11bd
00000150: 7874 cd3c 629a 433c fb9b dc3c 0f21 603d
00000160: bb38 f13c a42f 9f3b 9928 1f3d b9f3 e73b
00000170: 658b 17bc a5fd 10bc aca8 543c 61d4 bf3c
00000180: a013 bfbb 2309 d73c 0af6 7fbc 17d0 d6bc
00000190: 26f1 2bbc 9fe1 4e3c 3e65 d9bc 6ec0 04bd
000001a0: d612 373d 3f43 643c e0fb 313c 84c2 393b
000001b0: 4830 a9bc aa6d 0c3c 0ca5 d13c 34af 11bc
000001c0: f98a 393c 6281 10bb a94f 133c 31bb 903c
000001d0: e42c afba dcaa 79bc c57f 923a 4594 62bc
000001e0: 911c 0b3d 9e70 033b 2fe1 6dbc 70eb 55bc
000001f0: 5206 db3c 47b2 133d 0950 fd3a bbe5 0e3c
0.0072509223 -0.025511585 0.020217584 -0.005240238 0.02454769 0.023500768 0.0025976426 -0.03163335
0.008814819 0.005370865 0.011666223 0.041512955 0.018456735 -0.034548633 0.024438774 -0.035976615
-0.006481711 -0.0017165131 -0.0006699015 0.0063679446 -0.024467539 -0.024690568 0.0635939 0.02604347
0.030865993 -0.03275405 0.014388061 0.018250937 0.017573614 0.016283931 9.6667e-05 -0.020055115
-0.010658226 -0.009447674 -0.021577224 -0.008076712 0.03274199 -0.018933086 0.02945868 -0.0035423888
-0.024788525 -0.024581062 0.039943904 0.01896858 0.014337701 -0.04488265 0.02811703 0.015570519
-0.0135378 -0.016818216 -0.018378733 0.017699797 0.055663105 0.006170215 0.02394105 0.038754568
-0.040847965 -0.025294421 -0.0007518954 0.03966288 0.0017346106 -0.023903335 -0.018418675 -0.0022109805
-0.0054193474 -0.0061586844 -0.0033554109 -0.0039487337 -0.03919342 0.0072405767 0.0138236405 -0.025679555
-0.015689159 -0.010866355 -0.0030458695 0.03181716 -0.0063273422 0.05537727 -5.845923e-06 0.00527742
0.0070886128 -0.0061347513 0.011508591 -0.035595063 0.02507995 0.011938663 0.026929846 0.054719027
0.029445997 0.004857974 0.038857076 0.0070786146 -0.009249543 -0.008849536 0.012979668 0.0234167
-0.005831197 0.026249474 -0.015622625 -0.026222272 -0.010494506 0.012627034 -0.026537534 -0.032410078
0.044695698 0.013932048 0.010863274 0.00283447 -0.020652905 0.008571068 0.025591396 -0.008891869
0.011324638 -0.0022049774 0.00899116 0.017667385 -0.0013364819 -0.01523849 0.0011176994 -0.0138292955
0.03396279 0.0020056139 -0.01451902 -0.013056621 0.026736412 0.03605869 0.001932622 0.008721764

fc2.weight f4 [1, 128]
00000000: fe18 2a3c d6c2 d9bc 0ef3 a7bd 3943 553c
00000010: 4cca 18be 2f02 973d 37f5 673e c9cb 4f3d
00000020: a2ba 513d 5f5f a0bd a0b1 4fbc ee2a 06be
00000030: a48d e83c dfa1 a33d d545 a73d 703f 183d
00000040: d6b2 4e3d 9d97 cdbd 5a0b 103d 4731 e73b
00000050: abbd 763d 1e00 3bbc ed84 063e 3048 e83d
00000060: e0cc 8ebd ac52 77bc 0003 32be 109c c53c
00000070: 4e7c 0ebc cd41 9b3d a173 78bd b96d 973c
00000080: 4b7d 99bd b710 933d 785a cf3c df37 cf3b
00000090: 9c0e 01be 8551 ebbd 222d 1d3e 11cd 563c
000000a0: a1bd b3bd 160a 523c 88b2 163e e743 cfbd
000000b0: 429b 8bbd 8cbd 9b3b 350b ccbd 55d1 ce3d
000000c0: 06c5 4fbd e1aa 903c 7965 823c 0537 3c3d
000000d0: dad2 403e 1881 cabd a80e c2bd 3cb8 b9bd
000000e0: d815 a0bc 0478 113d 84c0 a8bd bf45 443e
000000f0: b9bb 483c ce1b 9cbd 77d8 4c3d 4e61 b0bd
00000100: 5031 523d ed98 e23d 3ec8 dbbd f9d8 88bd
00000110: aed8 1d3a 0d09 edbd 2304 5dbd 2934 43bc
00000120: 08ce 7f3d 9c5b 95bc 3b5d 4b3d b232 afbd
00000130: 5880 983c 9f5a 373e 0e9d 3abd 13d8 173d
00000140: fc11 80bc cc72 c4bd 397f 8c3b b967 2a3d
00000150: a02a 283d 1546 a23d fc10 ffbd 8def cd3d
00000160: 6683 e63d 05b5 9e3d 5b5b cbbd bf56 093d
00000170: 05d3 543d 5df7 0e3c 2049 133e 8578 9c3d
00000180: f494 913d 3ad0 f4bd 1cac ddbb b338 713d
00000190: 7139 e5bd a6cf 853d cd7c 18bd c959 083b
000001a0: c582 d0bd 0b13 b9bd f177 203d cb57 33bd
000001b0: cf71 343d 9b65 e6bd 5ba4 853c 9432 cdbd
000001c0: bd87 adbd bf3a 9fbd 8ac7 bebd b395 00be
000001d0: 8f49 963d 68e3 e9bd 7959 b2bd d798 833d
000001e0: 2a27 1d3e 110c 9b3c cfac a83c b889 bbbc
000001f0: 76d7 d2bd 560c 323e 7ec2 87bc 343c 163e
0.010381935 -0.026582163 -0.08200656 0.013016515 -0.1492092 0.07373463 0.22652136 0.050731454
0.051203378 -0.078306906 -0.012676626 -0.13102314 0.028387852 0.07989859 0.08167616 0.037169874
0.05046352 -0.100386836 0.035167076 0.007055435 0.060239475 -0.011413602 0.13136645 0.11341894
-0.069726706 -0.015095394 -0.17383957 0.024122268 -0.008696629 0.0758091 -0.060657147 0.018484937
-0.07494601 0.071809225 0.025311694 0.006323799 -0.1260323 -0.11490158 0.15349248 0.013110415
-0.08776403 0.0128197875 0.14716542 -0.10120373 -0.068167225 0.0047528204 -0.09963075 0.10098521
-0.050725006 0.017659606 0.015917527 0.04595091 0.18830433 -0.09887904 -0.09475452 -0.09068343
-0.019541666 0.035514846 -0.082398444 0.19167231 0.012251788 -0.07622491 0.050011124 -0.086123094
0.05131656 0.110643245 -0.107315525 -0.06682009 0.00060213625 -0.11573992 -0.053959023 -0.011914291
0.062452346 -0.01823216 0.04964946 -0.08554591 0.018615887 0.17905663 -0.045559935 0.0370713
-0.015633576 -0.09592208 0.004287627 0.041602824 0.041056275 0.07923523 -0.124544114 0.10055456
0.11255531 0.077493705 -0.09929534 0.033529993 0.051959056 0.008725968 0.14383364 0.07640175
0.07108489 -0.119537786 -0.006764902 0.058891963 -0.11192597 0.065337464 -0.037228394 0.002080547
-0.10181192 -0.09036835 0.039176885 -0.043784898 0.04405385 -0.112498485 0.016313722 -0.10019413
-0.08473156 -0.07774877 -0.09315403 -0.12557106 0.07338249 -0.114203274 -0.08708472 0.06425636
0.15346971 0.018926652 0.020590214 -0.022892818 -0.10295002 0.17387518 -0.016572233 0.14671403
